app/src/main/assets/Bright_2_model.pt (torch, 336899 bytes, 14 tensors)

weight f4 [32, 3, 3, 3]
0	0xbaec7ce9	-0.0018042597
1	0x3cbe1a02	0.02320576
2	0xbc34cfcc	-0.011035871
3	0x3c531bdc	0.01288506
4	0x3bdde10d	0.006771213
5	0xbc4cbd5f	-0.012496321
6	0xbcb6b9d4	-0.022305407
7	0x3bbbf850	0.0057363883
8	0xbb870ae4	-0.0041211713
9	0x3c48971a	0.012243057
10	0xbceee467	-0.029161645
11	0x3c83f78a	0.016109247
12	0xbc297a75	-0.010344137
13	0x3c6554f5	0.013997306
14	0xbbdcf9cb	-0.006743645
15	0x3c8ae7e2	0.016956273
16	0xbca7d279	-0.020486103
17	0xbb44b207	-0.003001334
18	0xbc8cc3eb	-0.017183265
19	0x3ce9342f	0.028467266
20	0xbbd00c84	-0.006349148
21	0xbc6c86a8	-0.014436401
22	0x3baaad15	0.0052086213
23	0x3bc3f735	0.005980397
24	0xbca0cbef	-0.019628493
25	0x3ca5aa1e	0.02022272
26	0xbd600f43	-0.054702055
27	0xbc34aebe	-0.01102799
28	0x3d10de8a	0.03536848
29	0x3ca464d2	0.020067606
30	0xbc9c4dc0	-0.019080043
31	0xbc179dfa	-0.009253973
32	0x3ce176c3	0.02752245
33	0x3b9ba7d9	0.0047502336
34	0x3c31ed21	0.010859759
35	0x3b3653b7	0.0027820894
36	0x3c6ebd6f	0.014571532
37	0xbd3cb916	-0.04607495
38	0x3bed95f9	0.007250544
39	0x3d199db9	0.03750393
40	0xbc8b9f97	-0.017043872
41	0x3d22cebf	0.03974795
42	0xbb9ebf86	-0.0048446087
43	0xbc766abc	-0.015040096
44	0x3c5f53b0	0.0136307925
45	0x3bea2443	0.007145436
46	0xbc834612	-0.016024623
47	0xbb9da103	-0.004810454
48	0xbc9571b9	-0.018242704
49	0xbc866ab1	-0.016408296
50	0xbc20c2d2	-0.009812074
51	0x3cc1ad07	0.023642076
52	0x3c23260c	0.009957802
53	0x3cdbe779	0.026843773
54	0x3901c67b	0.00012376338
55	0x9acf2e4e	-8.5688e-23
56	0x1629e537	1.3724039e-25
57	0x9a33c7a3	-3.7177598e-23
58	0x172c7f0f	5.573657e-25
59	0xb0ed4384	-1.7263209e-09
60	0xbab5b74f	-0.0013863834
61	0x9c8c51f7	-9.28561e-22
62	0x22984eb1	4.1283e-18
63	0xa32afb11	-9.268884e-18
64	0x2b82481c	9.25707e-13
65	0x1a460130	4.09464e-23
66	0x366eac0f	3.5564915e-06
67	0xb5841c9a	-9.84309e-07
68	0x2137a3ca	6.2219585e-19
69	0x35b6cca3	1.3619614e-06
70	0x3b851877	0.0040617543
71	0x9ae7f58e	-9.5936076e-23
72	0x1fc0ed6b	8.170794e-20
73	0x9f28baf2	-3.573002e-20
74	0x17565813	6.9258295e-25
75	0x202672ef	1.4098775e-19
76	0x971ef437	-5.1360796e-25
77	0x30e69aa0	1.677865e-09
78	0xb2555de4	-1.241958e-08
79	0xb994b2bf	-0.00028361936
80	0x338ad68f	6.465154e-08
81	0xbce91a51	-0.028454931
82	0x3cd21c84	0.025648363
83	0x3bff719e	0.0077955266
84	0xbc96c422	-0.01840407
85	0xbbb1d96b	-0.0054275296
86	0x3d0516f4	0.032492593
87	0xbd140496	-0.036137186
88	0x3c2c22cb	0.010506342
89	0xbcc7ed97	-0.024405284
90	0xbd1c14f4	-0.03810592
91	0xbd086095	-0.033295233
92	0x3bd56fd8	0.006513577
93	0xba4d74b3	-0.0007837519
94	0xbbae7aa1	-0.005324677
95	0xbb86c7de	-0.0041131815
96	0xbcec3739	-0.028834926
97	0x3cc10cdc	0.023565702
98	0xb9ab53e5	-0.00032678168
99	0x3c6e1bb0	0.014532968
100	0x3bbc8fab	0.0057544312
101	0x3c12d673	0.0089622615
102	0xbd104e0c	-0.03523068
103	0x3cb645c2	0.02225006
104	0x3c5029f5	0.012705316
105	0x3b40fb44	0.002944664
106	0x3bb90931	0.0056468477
107	0x3c8156af	0.015788404
108	0xa8758e2e	-1.3631062e-14
109	0xa263197c	-3.0777728e-18
110	0xb95f46f0	-0.00021293364
111	0x245d7cd4	4.802747e-17
112	0x215a8f63	7.4051044e-19
113	0xa11bed8a	-5.2830423e-19
114	0x9ab0524d	-7.292486e-23
115	0x17bc10c5	1.2153448e-24
116	0x9c93b2ec	-9.773894e-22
117	0xb311251c	-3.3794194e-08
118	0x3a6fbb4b	0.00091450353
119	0x17356d0a	5.862188e-25
120	0xb5fc1a5c	-1.8783135e-06
121	0x99e8d016	-2.4072283e-23
122	0x9c4b1609	-6.7195546e-22
123	0x18ae3da2	4.504018e-24
124	0xa709d1fc	-1.9126402e-15
125	0xb3862538	-6.246631e-08
126	0x961857e7	-1.2306199e-25
127	0x23f55ad5	2.6601422e-17
128	0xa9172977	-3.35647e-14
129	0x97c02c71	-1.2418928e-24
130	0x22e74c06	6.269317e-18
131	0x3ad847fc	0.0016500945
132	0x94cc5580	-2.063246e-26
133	0xb39c98df	-7.292123e-08
134	0x9e4a4a19	-1.0709114e-20
135	0x3cd6f565	0.02624006
136	0xbc753cb4	-0.014968086
137	0xbc8ac1c0	-0.01693809
138	0x3d16bb50	0.03679973
139	0xbcd40a40	-0.025883794
140	0x3b77f8bf	0.0037837473
141	0xbb276044	-0.0025539557
142	0x3d340e9c	0.043959245
143	0xbb91ad9e	-0.0044457456
144	0x3c1cd4b8	0.0095722005
145	0xbbd32d56	-0.0064446134
146	0x3d0b0c20	0.03394711
147	0x3ce1d317	0.027566476
148	0x3bb53667	0.005530167
149	0x3c7dc803	0.015489581
150	0xbbc5569e	-0.0060222885
151	0x3c313ff8	0.010818474
152	0xbb8004d3	-0.003906825
153	0xbcff0f52	-0.031135235
154	0x3c8e1cfe	0.017347809
155	0xbcf66bff	-0.030080793
156	0x3bfe8bcf	0.0077681313
157	0x3c056729	0.008142271
158	0xbc45542c	-0.012043994
159	0x3d0f6a1e	0.03501331
160	0xbca37f61	-0.0199582
161	0x3cdffe62	0.027342979
162	0xbbcd843f	-0.0062718685
163	0xbcb7b77d	-0.022426361
164	0x3bb96dcc	0.0056588408
165	0x3d54edeb	0.05198471
166	0x39a74183	0.00031901532
167	0xbaebfadf	-0.0018003843
168	0x3c11c5e5	0.008897279
169	0xbc6da37b	-0.014504309
170	0xbb2875c7	-0.0025704966
171	0x3cd57a37	0.026059253
172	0x3cd71f98	0.026260182
173	0xba13c197	-0.0005636452
174	0xbbbeeec4	-0.005826803
175	0xbce929d7	-0.028462334
176	0x3bc33d44	0.005958231
177	0xbc0b8d8f	-0.008517637
178	0xbaadae93	-0.001325088
179	0x3a073f9b	0.0005159319
180	0xbbb50ab6	-0.0055249585
181	0x3c94f917	0.018185182
182	0xbab7d084	-0.0014023934
183	0x3be9e39e	0.00713773
184	0xbba7887a	-0.005112705
185	0x3bef810a	0.007309084
186	0x3c96392a	0.018337805
187	0xbbeb3003	-0.0071773543
188	0x3786e08a	1.6078604e-05
189	0xba1deb5a	-0.0006024145
190	0x3cee2e16	0.02907471
191	0xbcb5d95b	-0.02219837
192	0xbc882876	-0.016620856
193	0x3c8e4cd3	0.017370617
194	0xbc4e8aab	-0.012606303
195	0xbb967a6f	-0.004592232
196	0xbd1f5c13	-0.03890617
197	0xba89fcce	-0.0010527612
198	0x3cc51674	0.024058558
199	0xbc79dc76	-0.015250316
200	0xbd4f2616	-0.05057343
201	0x3c248b44	0.010042969
202	0x3b94733c	0.0045303386
203	0xbc99af2a	-0.018760283
204	0xbcc50d5f	-0.024054227
205	0xbc9fc069	-0.019500928
206	0xbcb76efa	-0.022391785
207	0xbd222dfd	-0.03959464
208	0xbd049b1c	-0.032374486
209	0x3cebcd24	0.028784342
210	0xbd19a60e	-0.037511878
211	0xbbc4ce79	-0.006006059
212	0xbbe4ca11	-0.006982096
213	0xbab54064	-0.0013828394
214	0xbb0e6943	-0.0021730221
215	0xbc33e6bd	-0.010980305
216	0xbc840654	-0.016116299
217	0xbca7dded	-0.020491565
218	0xbc82876a	-0.015933711
219	0x3b568a29	0.0032736158
220	0x3c46faac	0.012144726
221	0x3a8041d4	0.0009785243
222	0x3b941191	0.0045186956
223	0x3bca1ed2	0.006168225
224	0x3c9d6701	0.019214155
225	0xbcc2f812	-0.02379993
226	0xbd05e138	-0.03268549
227	0xbcead052	-0.028663788
228	0xbbd0c653	-0.0063712983
229	0xbcf11799	-0.029430198
230	0xbc6a5003	-0.014301303
231	0x3cfa7e9f	0.030577956
232	0x3cb6e933	0.022327995
233	0x3bbbb561	0.005728409
234	0x3ac6efe4	0.0015177694
235	0xba54d17e	-0.0008118375
236	0xbc47d10c	-0.012195837
237	0xbc9e8120	-0.019348681
238	0xbc41aee6	-0.011821484
239	0x3c0cf58c	0.008603465
240	0xbb880578	-0.0041510426
241	0xbb66ce85	-0.003521831
242	0xbc8a041b	-0.01684766
243	0x3d102493	0.03519113
244	0xbc04acf5	-0.008097877
245	0x3cd7de8d	0.026351238
246	0xbcdcebc4	-0.02696789
247	0x3cb4a21d	0.022049958
248	0xbbcfb8f9	-0.006339189
249	0x3d0f480b	0.034980815
250	0xbb61410b	-0.0034371044
251	0x3c63664f	0.013879373
252	0xbc32ecd4	-0.010920722
253	0x3cf19550	0.029490143
254	0x3b6caf74	0.003611532
255	0xbbcee5f5	-0.006314034

bias f4 [32]
0	0x3dce8088	0.10083109
1	0x3ba306a1	0.0049751555
2	0xbd7cba3c	-0.061701044
3	0x3d188efe	0.037245743
4	0xbd0a708b	-0.033798736
5	0x3d8bc9bf	0.068255894
6	0x3dce5ac7	0.10075908
7	0x3df1a1d6	0.11798446
8	0x3dc24c6e	0.09487234
9	0xbe04023f	-0.12891482
10	0xbdaa440a	-0.08313759
11	0x3e1f52c1	0.15558912
12	0xbcce89ea	-0.025212247
13	0x3e3e881b	0.18606608
14	0x3e15e7a8	0.14639151
15	0x3e3f8718	0.18703878
16	0x3db0ceeb	0.086332165
17	0xbcf98ede	-0.030463632
18	0x3e388602	0.1801987
19	0xbd7de7a2	-0.06198848
20	0x3d4a9063	0.049454104
21	0x3dbe2c60	0.092858076
22	0x3cd639d3	0.02615062
23	0xbd1c7b59	-0.03820357
24	0x3e05e205	0.13074501
25	0x3d481095	0.04884394
26	0xbce90a6b	-0.02844735
27	0x3e29e1fd	0.16590114
28	0xbc9bf1e1	-0.019036235
29	0xbcd8b719	-0.026454495
30	0x3e2056db	0.15658133
31	0x3de8dbca	0.113700464

weight f4 [32, 32, 3, 3]
0	0xbb603b35	-0.0034214978
1	0xbcf7f515	-0.030268231
2	0xbc035e0d	-0.008018029
3	0x3c8b2d56	0.016989391
4	0xbb5ebf17	-0.003398841
5	0x3bd7fa9e	0.006591155
6	0x3d52cea4	0.0514666
7	0x3cee16fd	0.029063696
8	0x3d56b0b5	0.052414615
9	0x3aef707b	0.0018267775
10	0xbb7296d3	-0.0037016168
11	0xbc3aca81	-0.01140082
12	0x3c194c54	0.009356577
13	0xbcb248ec	-0.021763287
14	0x3b7a6de0	0.0038212463
15	0xbc7a2a98	-0.015268944
16	0xbd163331	-0.036669914
17	0xbd1a15c9	-0.037618432
18	0xb98e5736	-0.00027149328
19	0x36bb2428	5.5772434e-06
20	0x16c92a4a	3.249999e-25
21	0xb8160469	-3.5766894e-05
22	0xb7e7ab4f	-2.7617118e-05
23	0xb587f4fc	-1.0129584e-06
24	0x9a33810e	-3.7120582e-23
25	0x9fe494ed	-9.680813e-20
26	0x39bd9e7a	0.00036166963
27	0x3c90d9bc	0.017681949
28	0xba672182	-0.0008816944
29	0xbcd1c39d	-0.025605971
30	0x3d045c1a	0.032314397
31	0xbc2e07ed	-0.010622007
32	0xbc1033a5	-0.0088013755
33	0x3d59eb42	0.053202875
34	0x3c3feef9	0.01171469
35	0xbce1f7ac	-0.02758392
36	0x33338981	4.1801744e-08
37	0x9efd3f1b	-2.6813517e-20
38	0xa1074a14	-4.583782e-19
39	0xa708b177	-1.8969995e-15
40	0x9ed00aaa	-2.2027267e-20
41	0xb28fcecf	-1.6741437e-08
42	0xb61b4877	-2.313898e-06
43	0x2eae8944	7.936987e-11
44	0x212b8b09	5.8121065e-19
45	0x3c872bcc	0.016500376
46	0xbca897e9	-0.020580249
47	0xbc501fae	-0.0127028655
48	0xba96f6b4	-0.0011517615
49	0x3d285f80	0.0411067
50	0x3d52776c	0.05138342
51	0xbc29f848	-0.010374136
52	0xbc4a9fa4	-0.012367163
53	0x3c9880f0	0.01861617
54	0xbc3db2d4	-0.0115782805
55	0xbb0a262b	-0.0021079879
56	0x3cbabb4d	0.02279439
57	0xbca4fc65	-0.020139882
58	0x3bc64dff	0.0060517783
59	0xbaf70af9	-0.0018847875
60	0xbb09bdc2	-0.0021017645
61	0xbcd2a8ab	-0.025715193
62	0x3c02d32d	0.007984919
63	0xbc59a356	-0.013283571
64	0x3b49a199	0.0030766486
65	0x3b56a5da	0.0032752664
66	0x3b8049c0	0.0039150417
67	0xbc3cbe93	-0.011520046
68	0x3d0a5eaf	0.033781704
69	0x3c0437ba	0.008069927
70	0xbc8b6344	-0.017015107
71	0x3d3951f8	0.045244187
72	0x3b527362	0.003211223
73	0x3c8f58aa	0.017498333
74	0x3d053957	0.032525387
75	0xbc90ffc1	-0.017700078
76	0xbbee71be	-0.0072767427
77	0x3a9f46de	0.0012151857
78	0xbcc4b6c4	-0.02401293
79	0x3bf467c8	0.0074586608
80	0xbc93ef20	-0.01805836
81	0x3c1c43df	0.009537666
82	0x3c584d1a	0.013201976
83	0x3c4342ad	0.011917752
84	0x3ca4dac8	0.020123854
85	0x3cb174b0	0.021662086
86	0xbaca0dca	-0.0015415486
87	0x3d0c4f67	0.03425541
88	0x3cf36c07	0.029714597
89	0x3c051f6c	0.008125167
90	0x17137886	4.7650384e-25
91	0x320da9eb	8.245915e-09
92	0x2919465f	3.4033862e-14
93	0x16fc0d32	4.0721123e-25
94	0xb74c2ed7	-1.2170253e-05
95	0xb92017e5	-0.0001526769
96	0xb58e44fb	-1.05999e-06
97	0x18198b10	1.9844995e-24
98	0xb682a74e	-3.8937787e-06
99	0x3c89b93a	0.016811956
100	0xbb394670	-0.0028270744
101	0xb9cdc4bc	-0.00039247226
102	0x3cc5a914	0.024128474
103	0xbcaffe98	-0.021483704
104	0xbc73152a	-0.014836589
105	0x3b464a33	0.0030256629
106	0xbb2ddc6d	-0.002652909
107	0x3d114b1e	0.035472028
108	0x1764f403	7.397876e-25
109	0x1a869f92	5.56789e-23
110	0x1681b3dc	2.0954581e-25
111	0xba91e03c	-0.0011129449
112	0xb5a1d674	-1.2057849e-06
113	0xb712f795	-8.759923e-06
114	0x213fbbbc	6.496178e-19
115	0x98d13912	-5.408286e-24
116	0x9d961058	-3.972157e-21
117	0xbbbcc626	-0.005760926
118	0x3cbfbe46	0.02340616
119	0x3bd1f089	0.006406848
120	0xbcad9ef4	-0.021193959
121	0x3c15bc62	0.009139152
122	0x3c852fdc	0.016258173
123	0xbc9b130d	-0.018929983
124	0xba412a57	-0.0007368675
125	0x3d000854	0.031257942
126	0xbb2dae7f	-0.0026501713
127	0x3be0e7c8	0.006863568
128	0xbaa1e20f	-0.0012350696
129	0x3c7ed278	0.015553109
130	0xbcebbaa5	-0.028775522
131	0x3cd1658b	0.025561115
132	0x3c946e40	0.018118978
133	0x3ccaa3a8	0.02473624
134	0x3bafa19c	0.0053598415
135	0xba098d0f	-0.00052471546
136	0xbd5e2697	-0.05423602
137	0xbb81be77	-0.0039594728
138	0x3c69b811	0.014265076
139	0xbcbcd287	-0.023049606
140	0xbc621b22	-0.013800414
141	0x3cca54b1	0.024698587
142	0xbb50c4e9	-0.003185565
143	0xbc0a2d98	-0.008433722
144	0xbcbc5104	-0.02298785
145	0xbc890c18	-0.0167294
146	0xbc9a6c36	-0.018850427
147	0xb9986909	-0.00029069957
148	0x3aed62d0	0.0018111113
149	0x3cf32a71	0.029683324
150	0xbc15a468	-0.009133436
151	0x3d649b6c	0.055812284
152	0xbcaaf1a6	-0.02086718
153	0xaaf18dcc	-4.290859e-13
154	0x9cb4b698	-1.19586e-21
155	0x237518de	1.32867424e-17
156	0x31b9553e	5.3938995e-09
157	0x33b9592f	8.630956e-08
158	0x178570cd	8.623398e-25
159	0x97e1bcde	-1.4587961e-24
160	0xb04dfd34	-7.493839e-10
161	0x1891bd47	3.7672743e-24
162	0xbcaf8047	-0.021423472
163	0x3b024355	0.0019876559
164	0x39f0e414	0.000459463
165	0xbca121b2	-0.019669387
166	0x3c5ca303	0.013466599
167	0x3cc67fff	0.024230955
168	0xbc2b3ba7	-0.010451234
169	0x3c6e4088	0.014541753
170	0xbb87c6e3	-0.004143582
171	0x2b610620	7.994456e-13
172	0x9c25b15c	-5.482315e-22
173	0x38fa4155	0.00011933098
174	0x962e8323	-1.4096988e-25
175	0x988ca2e0	-3.6353614e-24
176	0x32519e12	1.2201342e-08
177	0x30571db3	7.825875e-10
178	0xadc58ba6	-2.2458323e-11
179	0x98bad8e8	-4.8298892e-24
180	0x3b88b3ac	0.004171809
181	0x3c9a3786	0.018825304
182	0x3b981906	0.004641655
183	0xbcbf4fcd	-0.023353482
184	0x3c248a6c	0.010042768
185	0xbccc51c9	-0.024941342
186	0xba890238	-0.0010452932
187	0xbcbf2eaf	-0.02333769
188	0xbd28746b	-0.04112665
189	0x3ca0ac68	0.01961346
190	0xb8bf6c2f	-9.1277405e-05
191	0x3cb2fa37	0.021847827
192	0x3c0748b3	0.008257079
193	0x3c4963b7	0.01229184
194	0x3c90ddb1	0.017683836
195	0x3bd3a15e	0.0064584455
196	0x3d444ec0	0.047926664
197	0x3d0d2cfb	0.034466725
198	0x3cf81a9d	0.030286128
199	0xbbec4124	-0.007209914
200	0xba18f9db	-0.0005835571
201	0x3c91e758	0.017810509
202	0x3b73eac8	0.0037218798
203	0x3ce9b3b6	0.028528076
204	0x3cb6bcd3	0.022306835
205	0x3ce4240b	0.027849218
206	0x3ca8d7a4	0.020610638
207	0x3824fa15	3.9333554e-05
208	0x1794788d	9.594707e-25
209	0x15b4cc30	7.302357e-26
210	0x38211721	3.840693e-05
211	0x34e011a4	4.1736087e-07
212	0xb18390bd	-3.8290566e-09
213	0xba504e4c	-0.00079462375
214	0x9753044f	-6.8183215e-25
215	0xb8f786db	-0.000118029966
216	0xbaa2d353	-0.0012422599
217	0xbb6d6516	-0.0036223582
218	0xbcb1dd90	-0.021712095
219	0x3cd8580a	0.026409168
220	0x3b451e60	0.003007792
221	0x3bffaafe	0.0078023663
222	0xbcf91836	-0.030407052
223	0x3cc0107c	0.02344536
224	0x3c9e3f23	0.019317215
225	0x3ba96fd7	0.005170803
226	0x3a8613a8	0.0010229247
227	0x3d3ed745	0.046592016
228	0xbc7a5072	-0.015277969
229	0x3c1daa17	0.009623072
230	0x3bdfa1a1	0.0068246876
231	0x3bb7ac47	0.005605254
232	0xbb254374	-0.0025217207
233	0x3c7184fc	0.014741179
234	0xb4b0236f	-3.2808336e-07
235	0xa2a17b9e	-4.3770022e-18
236	0x93f95029	-6.293548e-27
237	0x38b248d3	8.501266e-05
238	0x971c9a67	-5.06012e-25
239	0x9e1de8dd	-8.359666e-21
240	0x9d4d2a77	-2.7153478e-21
241	0xaa851aea	-2.364422e-13
242	0x99228c7e	-8.403576e-24
243	0xbcc531fd	-0.024071688
244	0xbc89a4f5	-0.01680229
245	0x3d03d1fc	0.03218268
246	0xbc6fb6ed	-0.014631015
247	0xbcc53556	-0.024073284
248	0x3babaa15	0.005238781
249	0x3cd6f1f7	0.026238425
250	0x3b041230	0.0020152442
251	0xbc73b7e6	-0.014875388
252	0x1a89ecfd	5.704475e-23
253	0xb42c33e3	-1.6037625e-07
254	0xb5a541ca	-1.2312605e-06
255	0x22b170c5	4.8095346e-18

bias f4 [32]
0	0x3c06183c	0.008184489
1	0x3d2b2398	0.04178199
2	0x3cff4935	0.031162838
3	0xbd176314	-0.036959723
4	0xba0d4ba7	-0.0005389996
5	0xbc95b1e8	-0.018273309
6	0xbc0b17c0	-0.008489549
7	0xbb8bfaa3	-0.0042718216
8	0xbb0a89e5	-0.002113932
9	0xbb35cea7	-0.0027741583
10	0x3d54d66d	0.051962305
11	0x3d2f23f4	0.042758897
12	0xbaa3af0e	-0.0012488083
13	0xbb1c7343	-0.0023872412
14	0xbb9bc13a	-0.004753259
15	0xbd0695de	-0.03285777
16	0x3d5b6488	0.05356267
17	0xbc8ae108	-0.016953006
18	0x3b528675	0.00321236
19	0xbbcd597b	-0.0062667704
20	0x3d066fce	0.03282147
21	0xbc29bef8	-0.010360472
22	0x3cec2e78	0.028830752
23	0xba56b111	-0.0008189837
24	0xbb178a70	-0.0023123287
25	0x3d26e969	0.04074994
26	0xbb421785	-0.002961607
27	0xbc72719e	-0.014797596
28	0x3d697bbc	0.057002768
29	0xbcb4ad52	-0.022055302
30	0x3d4e0484	0.050297275
31	0x3d01599b	0.031579595

weight f4 [32, 32, 3, 3]
0	0xbc0e9703	-0.008702996
1	0x3c13485e	0.008989422
2	0x3d075f73	0.03305001
3	0xbcc4c022	-0.024017397
4	0xbc90ea71	-0.017689915
5	0xbc86e02f	-0.016464321
6	0xbc24088d	-0.010011804
7	0xbc873c8d	-0.016508365
8	0x3a5c5f1d	0.0008406507
9	0x3cd7cf3c	0.026343934
10	0xbcd9a8c7	-0.026569737
11	0xbb8a83fc	-0.0042271595
12	0xbccc6639	-0.024951087
13	0x3caf0cf9	0.02136849
14	0xbc31a478	-0.010842435
15	0x39caafc1	0.0003865939
16	0x3c00d2ac	0.007862728
17	0x3cab0fd2	0.020881567
18	0x3c4bd6dd	0.012441364
19	0x3973c6f6	0.00023248405
20	0x3b55d68d	0.0032629103
21	0x3bc748b0	0.006081663
22	0xbd0522f6	-0.032504044
23	0x3bf34264	0.007423686
24	0xbcca1394	-0.024667539
25	0xbd557952	-0.052117653
26	0xbd230e5f	-0.039808627
27	0x3d5207b5	0.05127688
28	0x3b57ad0d	0.0032909543
29	0x3c6e9789	0.014562496
30	0x3c082bc8	0.0083112195
31	0x3cfe8298	0.031068131
32	0x3c62d834	0.013845492
33	0x3d2c9f5f	0.042144176
34	0x3c76bc26	0.0150595065
35	0x3b8300c5	0.0039978945
36	0xb5f0d0db	-1.7942178e-06
37	0xb796843a	-1.7942966e-05
38	0xb5e7d0f1	-1.7271651e-06
39	0xb60505d3	-1.9821935e-06
40	0xb65299b8	-3.1381915e-06
41	0x31fabe02	7.297559e-09
42	0xb59be233	-1.1614233e-06
43	0x35a3e8a5	1.2212155e-06
44	0xb689a482	-4.1020694e-06
45	0x1751e32e	6.7818283e-25
46	0x17356317	5.8609323e-25
47	0x978bc287	-9.03177e-25
48	0xb1b9ba5c	-5.4053952e-09
49	0x17f6ec1c	1.595698e-24
50	0x2a3173f7	1.5760991e-13
51	0x3605a32e	1.9913527e-06
52	0x1d8d71db	3.7440113e-21
53	0x261760e0	5.251994e-16
54	0x3c9dce3e	0.019263383
55	0xbbe4f9be	-0.0069877794
56	0x3bf53c8a	0.0074840235
57	0xbd005de5	-0.031339545
58	0xbccaaad8	-0.024739668
59	0x3c64341a	0.013928438
60	0xbbe42301	-0.0069621806
61	0x3ca0b436	0.019617181
62	0x39b46cfa	0.0003441347
63	0x27f7ece6	6.8813118e-15
64	0x16f38a26	3.9345951e-25
65	0x9b4a9d0e	-1.6759795e-22
66	0xab660f62	-8.173376e-13
67	0xb86e7c0b	-5.6859146e-05
68	0x161410cc	1.1960645e-25
69	0x373af78c	1.11441e-05
70	0x2347d4e5	1.0832894e-17
71	0xaee8ae28	-1.0581075e-10
72	0x2bb12b5c	1.2588641e-12
73	0x1661140a	1.8181678e-25
74	0x984be17e	-2.635098e-24
75	0xa9608273	-4.9851138e-14
76	0x3b884f56	0.004159848
77	0xb4afe449	-3.276239e-07
78	0x9a5dd976	-4.5877392e-23
79	0x1690b0f5	2.337613e-25
80	0x9ec5ea75	-2.0955155e-20
81	0x973c469c	-6.08352e-25
82	0x225cd757	2.992956e-18
83	0xa80f7b53	-7.964836e-15
84	0x98511291	-2.702199e-24
85	0xb383563a	-6.1158474e-08
86	0xa7a3fa14	-4.5512723e-15
87	0xb83212f3	-4.2456155e-05
88	0x20070101	1.1435277e-19
89	0x1f29916b	3.590743e-20
90	0x3d113ede	0.035460345
91	0xbb42b720	-0.0029711202
92	0x3cb9a577	0.022661908
93	0xba9313b2	-0.001122108
94	0xbc8d1c1a	-0.017225314
95	0x3c236c23	0.009974512
96	0xbc8b8a15	-0.017033616
97	0x3c2dc5e2	0.010606261
98	0x3bf69e33	0.007526183
99	0xbcb4c3b1	-0.02206597
100	0xb9758089	-0.00023412904
101	0xbc562ca2	-0.013072165
102	0x3a23a3e4	0.0006242378
103	0xbc8d6323	-0.017259186
104	0xbcefc0b9	-0.029266702
105	0xbbe24d69	-0.0069062007
106	0x3b29137a	0.0025798962
107	0xbd19d9db	-0.03756128
108	0xba1a0bac	-0.0005876373
109	0xb9a7f6a6	-0.0003203649
110	0xba66831a	-0.00087933394
111	0xba7afddc	-0.0009574571
112	0xb92f26d0	-0.0001670376
113	0xba740ced	-0.00093097874
114	0xba7e352b	-0.00096972537
115	0xb9244447	-0.00015665694
116	0xba7a7541	-0.00095542154
117	0x1e4058d1	1.0182762e-20
118	0x2f1e4b7b	1.4396832e-10
119	0x1a726c5e	5.0131965e-23
120	0x39a5a750	0.0003159591
121	0x382ff086	4.1947256e-05
122	0x309b8fc1	1.1318592e-09
123	0xb0ecbb59	-1.7224507e-09
124	0x9bbb6180	-3.0999563e-22
125	0xb699fe69	-4.5893726e-06
126	0x3c248e8e	0.010043753
127	0x3bfc58e0	0.0077010244
128	0x3c170d8b	0.0092195375
129	0x3a244880	0.0006266907
130	0xbba90011	-0.0051574786
131	0xbb0e463c	-0.0021709343
132	0xbcaebec2	-0.021331195
133	0xbc85e639	-0.01634513
134	0xbc69924e	-0.014256073
135	0x3c27ba4c	0.010237288
136	0x3bbd7a54	0.005782405
137	0xbcd7c5e5	-0.02633948
138	0xbc6b300a	-0.014354715
139	0xbc9d4307	-0.019197
140	0x3cc67ca9	0.024229364
141	0x3bfbc7b3	0.007683718
142	0xbb6bb921	-0.00359685
143	0x3c4b38e6	0.012403702
144	0xbc912ea3	-0.017722433
145	0x3d1fb553	0.038991284
146	0x3c8d894b	0.01727738
147	0x3cb14d2f	0.02164325
148	0xbc418f3e	-0.011813937
149	0x3c6defb2	0.01452248
150	0x3c993048	0.01869978
151	0x3c386081	0.011253477
152	0x3c209a08	0.009802349
153	0xbbd32fa3	-0.0064448877
154	0x3ba7f90c	0.0051261242
155	0x3bb8773c	0.005629448
156	0x3d0d5925	0.034508843
157	0xbc884a7b	-0.016637078
158	0xbb9c6a9d	-0.0047734515
159	0x3c56053f	0.013062774
160	0x3b4d9565	0.0031369564
161	0x3c3a9073	0.011386978
162	0x3b3da560	0.0028937683
163	0xbb9927e9	-0.004673947
164	0x3c207140	0.009792626
165	0x3a85de75	0.0010213392
166	0x392906fe	0.00016119701
167	0x3c5cd381	0.013478161
168	0x3af9a40f	0.0019046086
169	0x3c33812c	0.01095609
170	0x3cb753e8	0.022378877
171	0xbcf3e535	-0.02977238
172	0xbc710c5a	-0.0147124175
173	0xbca521de	-0.02015775
174	0xbc944f28	-0.01810415
175	0x3b4ebaed	0.0031544522
176	0xbc9ee120	-0.019394457
177	0xbb43edfd	-0.002989649
178	0x3c3f0eff	0.01166129
179	0x3c4764da	0.012170041
180	0x3d1a3da6	0.03765645
181	0x3c9cf891	0.019161494
182	0x3b4914ef	0.0030682643
183	0x3bf74694	0.0075462554
184	0xbcc24785	-0.023715744
185	0x39939d28	0.00028155115
186	0x3d1476c7	0.036246087
187	0x3cc87191	0.024468215
188	0x3c839bf0	0.016065568
189	0x3ad17758	0.0015981002
190	0xbad7d0b1	-0.0016465393
191	0x3b88c076	0.0041733338
192	0xbc0845cb	-0.008317421
193	0xbaeb2212	-0.0017939231
194	0xbb2a1dee	-0.002595778
195	0xbb14e118	-0.0022717174
196	0x3a06e428	0.0005145692
197	0x3a1a8d27	0.0005895667
198	0x3d4136c7	0.04717138
199	0x3ca6af6b	0.020347318
200	0x3ccf7b7b	0.025327435
201	0x3d0496f4	0.032370523
202	0x3c764849	0.015031883
203	0xbc2d621d	-0.010582474
204	0x3ceaa5b7	0.028643472
205	0xbb9d9082	-0.0048084864
206	0x3d021af0	0.03176397
207	0x3500c379	4.7968166e-07
208	0xb686eab9	-4.0208365e-06
209	0x3382707c	6.0740575e-08
210	0x350127f5	4.811439e-07
211	0x34ac86b4	3.2135506e-07
212	0x34c705e9	3.707094e-07
213	0x35213100	6.004848e-07
214	0x34aef76c	3.259005e-07
215	0x342e0bdb	1.6209326e-07
216	0xb3eaf778	-1.09414884e-07
217	0xb2d02310	-2.4230332e-08
218	0xb230bb6b	-1.0287162e-08
219	0x39864eea	0.00025617267
220	0x3442d32b	1.814448e-07
221	0x33b97fd9	8.637989e-08
222	0xb4c13a89	-3.599164e-07
223	0xb4c669b0	-3.6957272e-07
224	0xb3c26d08	-9.0536616e-08
225	0x3d616e90	0.05503708
226	0xbbaac1c1	-0.0052110855
227	0x3cb0fcf6	0.021604996
228	0x3bde7483	0.0067887916
229	0x3d0e8643	0.03479601
230	0x3c9092e0	0.01764816
231	0x3ce4b5f2	0.02791879
232	0x3d1fb78b	0.0389934
233	0x3d4cab13	0.049967837
234	0x310c5e1b	2.0426174e-09
235	0xb509fe9b	-5.1406977e-07
236	0xb1c0c92d	-5.6108065e-09
237	0x38c48acd	9.371862e-05
238	0x363b1156	2.7875262e-06
239	0x179385f9	9.533472e-25
240	0x3126f8d0	2.4297613e-09
241	0xb6c84156	-5.9680706e-06
242	0x161e3c22	1.2782113e-25
243	0x3ccdd873	0.025127625
244	0x3c077576	0.008267751
245	0x3b4539b6	0.0030094213
246	0xbcc65dc1	-0.024214627
247	0xbc01d520	-0.007924348
248	0x3bb88a92	0.0056317532
249	0xbc6ba470	-0.014382467
250	0x3c12b3b5	0.008953978
251	0xbcf0e4bd	-0.029405946
252	0xbb3f7dfd	-0.0029219382
253	0x3bf0b81f	0.0073461677
254	0x3c13dfa6	0.00902549
255	0xbc827f58	-0.015929863

bias f4 [32]
0	0xbc410e07	-0.01178313
1	0xba08262e	-0.00051936775
2	0xbb310a3c	-0.0027014157
3	0xbcf61296	-0.03003816
4	0x3d4779b3	0.048700046
5	0x3ceeff08	0.029174343
6	0x3d151a21	0.03640187
7	0x3d7cbd5b	0.06170402
8	0xbbb630de	-0.0055600246
9	0xbae92bde	-0.0017789563
10	0x3b9deef0	0.0048197433
11	0x3c78913d	0.015171346
12	0x3c566d78	0.013087623
13	0x3cdfc775	0.027316788
14	0x3d55f327	0.05223384
15	0x3d51e198	0.051240534
16	0x3d52053a	0.051274516
17	0xbaf4db2e	-0.0018681043
18	0x3d3d6bd5	0.046245415
19	0xbb4f9579	-0.0031674786
20	0x3d522f1b	0.051314455
21	0x3d753951	0.059869114
22	0x3d6986ee	0.057013445
23	0xbc354b5a	-0.0110653285
24	0x3cdb0226	0.026734423
25	0xbb636bc4	-0.0034701684
26	0x3cc21591	0.023691924
27	0x3b460e87	0.0030221061
28	0xb978f21f	-0.0002374132
29	0xbc99b970	-0.018765181
30	0xbb330859	-0.0027318208
31	0x3ca7d055	0.020485083

weight f4 [32, 32, 3, 3]
0	0xbc1cf452	-0.009579735
1	0xbc080a63	-0.008303258
2	0xbb93446a	-0.0044942396
3	0xbd180e48	-0.037122995
4	0xbc5b9939	-0.01340323
5	0xbbc1c12e	-0.0059129214
6	0xbd400f78	-0.046889752
7	0xbd114b2f	-0.03547209
8	0xbc9e6787	-0.019336475
9	0x364466d7	2.9266137e-06
10	0x34cc1f75	3.802085e-07
11	0x34c0a7a4	3.5884761e-07
12	0xba022143	-0.0004964063
13	0xbb873b7f	-0.0041269655
14	0x349f8c60	2.9718194e-07
15	0x35e8dea7	1.7350147e-06
16	0x34deb02d	4.1478907e-07
17	0x351a0206	5.7372415e-07
18	0x3c538a76	0.01291143
19	0x3c2b9032	0.010471391
20	0x3c32de85	0.010917311
21	0x3c7e9711	0.015538947
22	0x3c2bd2b1	0.010487244
23	0x3be3dcf8	0.0069538318
24	0x3d0a5fd6	0.033782803
25	0x3cbdb6b6	0.023158412
26	0x3c4e92cc	0.012608241
27	0x3d8806d8	0.0664193
28	0x3b0634ec	0.0020478321
29	0xbce3a408	-0.027788177
30	0x3d14f067	0.036362078
31	0x3bb99d88	0.005664531
32	0xbcf63c92	-0.030058179
33	0x3d18dc16	0.037319265
34	0xbc6a0034	-0.014282275
35	0xbcd3942e	-0.025827494
36	0xbcfce410	-0.030870467
37	0xbbb72a02	-0.0055897245
38	0x3c8a6e09	0.016898172
39	0x3b450dfe	0.0030068154
40	0xbb32c05d	-0.0027275302
41	0xbbde7fd5	-0.006790141
42	0x3c3e7ca5	0.011626397
43	0x3c5fac4b	0.013651918
44	0xbcccfff0	-0.025024384
45	0x3cbc22c1	0.02296579
46	0x3bae69dc	0.005322678
47	0x3c3c360b	0.011487494
48	0x3bbc5693	0.005747625
49	0x3ae17358	0.0017200513
50	0x3bc18bc5	0.0059065544
51	0x3d1c5689	0.038168464
52	0x3c8d368d	0.017237926
53	0x3c2f6c7d	0.010707018
54	0x3c286fba	0.010280544
55	0x3cb843c7	0.022493256
56	0x3d1c9396	0.038226686
57	0x3cb99871	0.022655698
58	0xbd073237	-0.033006873
59	0xbce9d563	-0.028544134
60	0x3d83fbd9	0.064445205
61	0x3aff5c72	0.0019482507
62	0x3c6fdaf3	0.014639604
63	0x3c640375	0.01391684
64	0x3c7fcd97	0.015612981
65	0xbc34db7a	-0.011038655
66	0x3c16157a	0.009160394
67	0x3bdc9b0a	0.0067323493
68	0xbb9a85ad	-0.0047156424
69	0x3d0884be	0.033329718
70	0xbc7d4460	-0.015458196
71	0x3cbb9660	0.022898853
72	0x3cd74f66	0.026282977
73	0x3ba9016a	0.0051576393
74	0x3c8595be	0.016306754
75	0x3c850a46	0.01624025
76	0x3bfd48f7	0.0077296454
77	0x3bc88858	0.006119769
78	0x3c82866a	0.015933234
79	0x3bb19a25	0.005419987
80	0x3c9b43bc	0.018953197
81	0x95a63714	-6.7133764e-26
82	0x9c07cf52	-4.493571e-22
83	0xad714524	-1.3714616e-11
84	0xb895ef05	-7.1493945e-05
85	0x2f151e98	1.356234e-10
86	0xb90751fd	-0.00012905146
87	0xad4f2d9d	-1.1776716e-11
88	0x22a0b5dd	4.3560642e-18
89	0x20a8a97d	2.8572465e-19
90	0xbccb8b0c	-0.024846576
91	0xbca230a5	-0.019798586
92	0xbb890a74	-0.0041821543
93	0xbc89a6ec	-0.016803227
94	0xbb1f7c2b	-0.0024335484
95	0xbb66ba97	-0.003520643
96	0xbd11b0c0	-0.035568953
97	0xbb6caafb	-0.0036112654
98	0x3bb6608e	0.0055657094
99	0xbb835f63	-0.0040091737
100	0x3bc7cddf	0.00609754
101	0x3d065a2d	0.032800842
102	0x3c72d4ba	0.014821226
103	0x3af04efd	0.0018334087
104	0x3c02cb7a	0.007983083
105	0xbc6f284e	-0.014597012
106	0xbc1c0f86	-0.009525185
107	0x3cba1234	0.022713758
108	0x3c9ae7b6	0.018909317
109	0xbbe0f64c	-0.0068652984
110	0x3c9475e9	0.01812263
111	0x3bfdad0a	0.007741575
112	0xbac57516	-0.0015064802
113	0x3c166575	0.009179463
114	0x3c31ae32	0.010844754
115	0x3b974d83	0.0046173944
116	0x3d1dd6ab	0.0385348
117	0x3d3029af	0.043008503
118	0x3c447446	0.011990612
119	0x3d0d36fd	0.03447627
120	0x3c525f09	0.012840041
121	0xbc39f3aa	-0.011349598
122	0x3a919fe1	0.001111027
123	0x3cc67119	0.024223851
124	0x3cc22d60	0.023703277
125	0x3cde6ba3	0.027150935
126	0x3c7de89d	0.015497354
127	0xbb0481f6	-0.0020219064
128	0x3d4634a8	0.04839006
129	0x3ca44f38	0.020057306
130	0x3c4e8516	0.012604972
131	0x3c8551ef	0.01627442
132	0xbc6440d5	-0.013931473
133	0x3b01e9ed	0.0019823269
134	0x3c01bdaa	0.007918755
135	0x3cc2810b	0.023743173
136	0x38c2d28b	9.2898576e-05
137	0x3cd1cb1e	0.02560955
138	0x3cba62b4	0.022752143
139	0xbd2fe09b	-0.04293881
140	0xbca5608e	-0.020187642
141	0x3c77ddcb	0.015128563
142	0xbd16eb9e	-0.036845796
143	0x3bbfb792	0.0058507407
144	0x3c070cd6	0.008242806
145	0x3d3c3f9d	0.045959104
146	0x3c634362	0.013871046
147	0x3b84d1fd	0.004053353
148	0x3c5a41dd	0.013321367
149	0xbc077084	-0.008266572
150	0x3c969567	0.018381787
151	0x3c5bb1df	0.013409107
152	0xbb870edf	-0.004121646
153	0xb2bef6b0	-2.2231092e-08
154	0x3ba00108	0.0048829354
155	0x2ae8fa28	4.138506e-13
156	0xaabf612c	-3.3995842e-13
157	0xab3e7daf	-6.767598e-13
158	0xaa2007ef	-1.4213607e-13
159	0xb90d722c	-0.0001348934
160	0x2b27ac4c	5.956943e-13
161	0x2b20c6ff	5.711958e-13
162	0xbc9415ad	-0.018076742
163	0x3c6164b7	0.013756922
164	0x3bfa2908	0.007634286
165	0xbc0c48d2	-0.008562284
166	0x3bfd1b53	0.0077242046
167	0x3c3a8a0e	0.011385454
168	0x3d3ddd7e	0.04635381
169	0xbc92204f	-0.017837672
170	0x3cf79f43	0.03022731
171	0x1644d6e2	1.5900559e-25
172	0x9717faa7	-4.91071e-25
173	0x1778dc17	8.0410914e-25
174	0xb395ae4d	-6.970058e-08
175	0xbb837a79	-0.0040124026
176	0x16cabbe5	3.2753438e-25
177	0x35c4f43d	1.4674221e-06
178	0xa1bb29f1	-1.2682715e-18
179	0x974e4f2f	-6.6662134e-25
180	0x3c53cb25	0.012926851
181	0xbc35abda	-0.011088336
182	0x3bc35919	0.005961549
183	0x3c702316	0.014656803
184	0xbd298122	-0.041382916
185	0xbb0e929d	-0.0021754869
186	0x3ccb02c3	0.02478159
187	0x3b1fe906	0.0024400367
188	0x3cf3c73d	0.02975809
189	0x3c7d8b85	0.015475159
190	0xbcdbb501	-0.026819708
191	0x3c4b44b4	0.012406517
192	0xb8979e53	-7.229731e-05
193	0x3cc1aebe	0.023642894
194	0xb9b56336	-0.00034596928
195	0x3cb70383	0.022340542
196	0xbc1cbca7	-0.009566463
197	0x3c5db48e	0.013531817
198	0x3cd19bb7	0.025586946
199	0x3c9c9ff1	0.019119235
200	0x3d64a33a	0.055819727
201	0x3c8366e4	0.016040273
202	0xbc0e9c33	-0.008704233
203	0xbcd7f3e4	-0.026361413
204	0x3b0f3e9e	0.002185739
205	0x3addd1d5	0.0016923497
206	0x3c9b17de	0.01893228
207	0x3c72b216	0.014812967
208	0x3ca2cf8a	0.019874353
209	0x3c4d4c35	0.012530376
210	0xbc0e80ed	-0.0086977305
211	0xbc28fb8b	-0.010313879
212	0x3c5512e8	0.013004996
213	0x3b97cd0e	0.0046325987
214	0xbca36cac	-0.01994928
215	0x3cf3c9a3	0.029759234
216	0x3c6ce059	0.0144577855
217	0xbbe034ef	-0.0068422477
218	0x3d48aef5	0.048994977
219	0x3d0fa5a1	0.035070065
220	0x3c11f2a5	0.008907949
221	0x3cd9f51f	0.02660614
222	0xbc27fa23	-0.010252508
223	0xba6be557	-0.0008998713
224	0x3aa43397	0.0012527582
225	0x9cda19d1	-1.4432703e-21
226	0x351bb738	5.800862e-07
227	0xb7028204	-7.778875e-06
228	0x37fc1c75	3.0053992e-05
229	0x15a4d594	6.657604e-26
230	0x1e106d3d	7.6458865e-21
231	0x1afeb2ee	1.05341014e-22
232	0x2c77f4fb	3.5236803e-12
233	0x2643d19d	6.7938295e-16
234	0xbca0b258	-0.01961629
235	0x3c50297a	0.012705201
236	0x3aee7ea4	0.0018195701
237	0x3c6962bb	0.014244731
238	0xbc542af0	-0.01294969
239	0x3bd3db06	0.0064653186
240	0xbc48c37c	-0.012253638
241	0x3c9f9c05	0.019483576
242	0xbc18934c	-0.009312462
243	0x3d0a61cb	0.03378467
244	0x3ca69f69	0.020339685
245	0x3d02bcff	0.031918522
246	0x3c11edb1	0.008906768
247	0x3ba8443d	0.0051350878
248	0xbc5592a6	-0.013035452
249	0x3cf35003	0.029701238
250	0x3c965d42	0.018355016
251	0xbce55a7c	-0.027997248
252	0x9b551c67	-1.7628124e-22
253	0x9769f691	-7.559757e-25
254	0xb18e265c	-4.137105e-09
255	0x35505183	7.7604653e-07

bias f4 [32]
0	0x3cfdbebe	0.030974742
1	0xba18c553	-0.00058277434
2	0x3cecc47a	0.028902281
3	0x3d519a08	0.051172286
4	0x3c95c4a3	0.01828224
5	0x3d6c1014	0.05763252
6	0x3d71d1fa	0.05903814
7	0xba07ebec	-0.00051849964
8	0x3cba94d5	0.022776047
9	0x3bfa4205	0.0076372647
10	0x3d0dddd4	0.03463538
11	0x3d133cf1	0.03594679
12	0x3d5513cd	0.052020837
13	0x3c82905c	0.015937977
14	0x3d65496b	0.05597822
15	0xbadd494a	-0.0016882804
16	0xbceb687b	-0.028736344
17	0xbb1f7452	-0.0024330807
18	0xba1808b8	-0.0005799639
19	0xbb8b065b	-0.004242701
20	0xb7dcee2e	-2.6336955e-05
21	0x3cdfacda	0.027304102
22	0x3d2c0a29	0.042001877
23	0x3d3e1c99	0.04641399
24	0xbba69bb1	-0.005084478
25	0x3c8cf6dd	0.017207557
26	0xb9175707	-0.00014432902
27	0x3d733873	0.059380006
28	0x3cc2383d	0.023708457
29	0x3c9ca7dc	0.01912301
30	0xbb4b7f52	-0.003105123
31	0x3d2776af	0.04088467

weight f4 [32, 64, 3, 3]
0	0xbd777bed	-0.06042092
1	0xbccfdcb5	-0.025373796
2	0xbcabbd33	-0.02096424
3	0xbc7788c7	-0.015108294
4	0xbc6fe48f	-0.014641895
5	0x3c534289	0.012894281
6	0xbc2e0632	-0.010621594
7	0x3c34cf44	0.011035744
8	0x3c0ebcf7	0.008712045
9	0x3552e142	7.855889e-07
10	0x384f4c75	4.9423852e-05
11	0xb5d4d466	-1.5857047e-06
12	0x359ee9aa	1.1839923e-06
13	0xb76010bc	-1.3355337e-05
14	0x349bd266	2.9024085e-07
15	0x35bd95e9	1.4125227e-06
16	0x34aa7614	3.175088e-07
17	0x34a73620	3.1145555e-07
18	0x3cd03edd	0.0254206
19	0x3c3975af	0.011319562
20	0x3be6546b	0.0070291064
21	0x3cb402d1	0.021974
22	0x3c200d75	0.009768833
23	0x39cc1ab0	0.00038929796
24	0x3caf2e4c	0.02138438
25	0x3b9b05cd	0.004730916
26	0xbbed0ff6	-0.0072345687
27	0x3c7a3676	0.015271774
28	0x3bb2bd50	0.0054546967
29	0x3c3f4761	0.011674733
30	0x3c7468e5	0.014917587
31	0x3b32a089	0.002725633
32	0xbc818e2a	-0.01581486
33	0x3c6593c2	0.014012279
34	0x3c287b7a	0.010283345
35	0x3c8bcce3	0.017065471
36	0xbc355599	-0.011067771
37	0x3c2323a5	0.009957229
38	0x3ba6c400	0.005089283
39	0xbab08568	-0.0013467493
40	0x3b495396	0.0030719987
41	0xbb400803	-0.002930165
42	0xbca97667	-0.020686341
43	0xbc3d1d58	-0.011542641
44	0xbb3b94b3	-0.0028622567
45	0x3c93ee89	0.018058078
46	0x3b05f1b4	0.0020438256
47	0x3c5b405f	0.0133820465
48	0xbb81fcb4	-0.003966892
49	0x3bbae0c7	0.005703065
50	0xbc3ce8bc	-0.011530098
51	0x393aef68	0.00017827528
52	0x3c230e87	0.009952194
53	0x3b9ffaea	0.004882206
54	0x3cb3d46e	0.02195188
55	0x3b4b1481	0.0030987563
56	0x3b28456a	0.002567614
57	0xba0d6363	-0.0005393533
58	0x3d196447	0.037449148
59	0x3987530f	0.0002581109
60	0x3b2af356	0.002608498
61	0xbb1684c8	-0.0022967327
62	0xbb412119	-0.002946919
63	0xbb900cb2	-0.0043960446
64	0xbcc0e036	-0.023544412
65	0xbcae591e	-0.021282729
66	0x3cba477e	0.022739168
67	0xbceaf200	-0.028679848
68	0x3abdc0ba	0.0014476993
69	0x3b1decf3	0.0024097532
70	0x3af37489	0.0018574159
71	0x3cf7e4e0	0.030260503
72	0x3c079aaa	0.008276621
73	0x3c656b91	0.014002697
74	0x3c720b9b	0.014773275
75	0x3c46f297	0.012142799
76	0xbc82f3e2	-0.015985433
77	0x3c2779c4	0.010221902
78	0x3bacf432	0.005278134
79	0x3cfb2ff7	0.03066252
80	0xbbb9e806	-0.0056734113
81	0xa25d4a17	-2.9990308e-18
82	0x3627eb3f	2.502187e-06
83	0xb68f4a0b	-4.270352e-06
84	0x333c5c12	4.38559e-08
85	0x99bbc86b	-1.9416295e-23
86	0xb94727da	-0.00018992965
87	0xba16247b	-0.0005727482
88	0x18be4c8f	4.9191153e-24
89	0x39240de7	0.00015645438
90	0xbcf317b8	-0.029674396
91	0xbca55555	-0.020182291
92	0xbc4cd276	-0.01250135
93	0xbca3ddbf	-0.020003198
94	0xb9aa4142	-0.00032473548
95	0x3bbc853e	0.0057531884
96	0xbc863417	-0.01638226
97	0x3b59be28	0.0033224914
98	0xbb032184	-0.002000899
99	0xbc9bb81e	-0.019008692
100	0x3c1092d4	0.008824069
101	0x3baad41d	0.005213274
102	0x3afbbb23	0.0019205551
103	0xbc1e3fa9	-0.009658732
104	0xbc920497	-0.017824454
105	0xbc16c4e4	-0.009202216
106	0x3c5baf6a	0.013408521
107	0xbc2f0061	-0.010681243
108	0x3c0a0b4e	0.008425547
109	0x3abaac3e	0.0014242006
110	0xbb8b0aab	-0.004243215
111	0xbb3be1b4	-0.0028668465
112	0x3b502d2a	0.00317652
113	0x3c4b7675	0.012418379
114	0xba2d12c1	-0.0006602221
115	0xbb3768e4	-0.0027986104
116	0xbbb55077	-0.005533274
117	0x3af0b586	0.0018364645
118	0xbb4225d1	-0.002962459
119	0x3c1bba43	0.0095048575
120	0xbc674263	-0.014114949
121	0x3cb2c4f7	0.021822436
122	0xbd016c10	-0.031597197
123	0xbc2208b5	-0.009889771
124	0xbb947f09	-0.0045317453
125	0xbc4e0254	-0.012573797
126	0x3c134a43	0.008989873
127	0x3b933306	0.0044921665
128	0x3c460589	0.012086281
129	0xbbdb6550	-0.006695427
130	0x3bde5889	0.0067854566
131	0xbb951144	-0.0045491774
132	0xbc281c34	-0.01026063
133	0xbaf031cb	-0.0018325386
134	0xb94b93bb	-0.00019414623
135	0x3bb59755	0.005541722
136	0x3ba6770e	0.0050801104
137	0x3bfce066	0.00771718
138	0xbbc9de30	-0.00616052
139	0x3b81986e	0.0039549386
140	0x3cea959b	0.02863579
141	0xbb90658e	-0.0044066375
142	0x3b72914b	0.003701287
143	0x3c8de12f	0.01731929
144	0x3c452ec6	0.012035077
145	0x3bcb8324	0.0062107015
146	0x3bb358eb	0.0054732463
147	0x3bb75140	0.0055944026
148	0x3cad44a0	0.021150887
149	0x3cfd398e	0.030911233
150	0xbd0505e8	-0.032476336
151	0xbc9d88d7	-0.01923029
152	0xbc249b17	-0.010046742
153	0x391d610e	0.00015008842
154	0xae603b26	-5.0984238e-11
155	0xb52c2d18	-6.4140613e-07
156	0xab3655b2	-6.4778315e-13
157	0x2a9aeda3	2.752079e-13
158	0x29c0d425	8.563314e-14
159	0xab5951e3	-7.720753e-13
160	0x29dc82b7	9.792638e-14
161	0xaaadce65	-3.0874188e-13
162	0x3c234bd2	0.009966807
163	0x3bc791d9	0.0060903844
164	0x3cd76303	0.02629233
165	0x3c9835ca	0.018580336
166	0x39546282	0.00020254593
167	0x3cb80b38	0.022466287
168	0xbb470afa	-0.0030371533
169	0x3b7386c9	0.0037159196
170	0xbc9b43ac	-0.018953167
171	0x19a9eb21	1.7569158e-23
172	0xb7c73e61	-2.3751696e-05
173	0x201d4af8	1.3323222e-19
174	0x38be3dd0	9.0714195e-05
175	0x9897359f	-3.908673e-24
176	0x200f0647	1.2114648e-19
177	0xb4ba3b55	-3.468837e-07
178	0x1891d26e	3.76941e-24
179	0x98168f3a	-1.9459357e-24
180	0x3aa97f30	0.0012931582
181	0x3c4a6d9a	0.012355233
182	0x3c2238c9	0.009901234
183	0x3c78eeea	0.01519368
184	0xbcde3385	-0.027124176
185	0x3932296f	0.00016990838
186	0xbc7d9349	-0.01547701
187	0xbb2c9299	-0.0026332496
188	0x3c9382b9	0.01800667
189	0x3cb63264	0.022240825
190	0x3c107d52	0.008818941
191	0xbbb11b85	-0.005404892
192	0x3d0cc273	0.03436513
193	0xbc5994b9	-0.013280087
194	0xbc0cd426	-0.008595502
195	0xbb750595	-0.003738736
196	0xbd5e31dd	-0.054246772
197	0x3c049570	0.008092269
198	0x3a14d72a	0.0005677814
199	0xbc26fb3d	-0.010191736
200	0x3bc6eade	0.006070479
201	0xbafa64f4	-0.0019103573
202	0x3c56d51c	0.013112333
203	0xbb7c32c1	-0.00384824
204	0xbc5ee621	-0.013604672
205	0xbbf59edc	-0.007495744
206	0xbd0d1e85	-0.034452934
207	0xbb227c04	-0.0024793157
208	0xbb8ad446	-0.0042367307
209	0x3b1311af	0.002244096
210	0xbd36419f	-0.044496175
211	0xbc0de3ec	-0.008660298
212	0xbba07be7	-0.004897583
213	0x3a1c1c5e	0.0005955155
214	0xbc07ad64	-0.008281086
215	0xbc93877c	-0.01800894
216	0x3bddc9b9	0.006768432
217	0x3b8c3303	0.004278542
218	0xbc0002d7	-0.007813177
219	0xbac08ed8	-0.0014691008
220	0xbc1b5025	-0.009479557
221	0xbb0db4ae	-0.0021622586
222	0xb8883eb8	-6.4966676e-05
223	0xbbb489cd	-0.005509591
224	0xbc2d64e7	-0.010583139
225	0x1bf842f4	4.1071426e-22
226	0x925427c5	-6.6944424e-28
227	0x19851fc0	1.3764701e-23
228	0x39552e67	0.00020330549
229	0x182c9e6c	2.2310462e-24
230	0x9782e6ac	-8.459283e-25
231	0x190a468b	7.148679e-24
232	0x9608b362	-1.1042596e-25
233	0x96aad92e	-2.760204e-25
234	0xbc979fba	-0.01850878
235	0xbc23e6a0	-0.010003716
236	0xbbce6d60	-0.0062996596
237	0x3d5308ab	0.05152194
238	0xba9422a2	-0.0011301825
239	0xbc23f81a	-0.0100078825
240	0xbbd3511d	-0.0064488784
241	0x3b44ea0e	0.0030046734
242	0xbb98031d	-0.004639043
243	0x3c0ef543	0.008725467
244	0xbc0df48d	-0.0086642625
245	0x3ab3d5d0	0.0013720337
246	0x3b0eb9e7	0.0021778287
247	0xbb3d7eb8	-0.0028914642
248	0x3cf9fd3c	0.03051626
249	0x3cfca1c9	0.030838864
250	0x3ce33658	0.027735874
251	0x3b6c72dc	0.0036079204
252	0x94612e8d	-1.13687776e-26
253	0x9cd60537	-1.416268e-21
254	0x1b08bf7a	1.1311526e-22
255	0xae2d554f	-3.9411415e-11

bias f4 [32]
0	0xbc283cc1	-0.010268391
1	0x3c22e9e2	0.009943457
2	0x3d29e4e8	0.041478068
3	0x3a5f5271	0.00085190596
4	0x3d01efb4	0.03172274
5	0x3cee6ddc	0.02910512
6	0xb5018b94	-4.825936e-07
7	0xbc736fc1	-0.014858187
8	0x3b5ce682	0.003370673
9	0x3c62fc9e	0.013854174
10	0x3cabd966	0.020977687
11	0x3d10c7eb	0.035346907
12	0x3acd645f	0.0015670172
13	0xbc7c7e4a	-0.015410969
14	0x3d12df45	0.035857458
15	0xbc856dea	-0.016287763
16	0xbc2b816f	-0.010467871
17	0x3cd7b2f1	0.026330443
18	0x3d4b7b7e	0.04967832
19	0x3ca537a0	0.020168126
20	0x3c1e3d7e	0.009658216
21	0x3ac77c84	0.0015219604
22	0x3d497f7c	0.049193844
23	0x3c4ae766	0.012384271
24	0xbb78747c	-0.0037911227
25	0x3bbb841d	0.0057225362
26	0xbc90aa28	-0.017659262
27	0xbbe3e9f6	-0.0069553806
28	0xba83f7f1	-0.0010068399
29	0x3d340202	0.043947227
30	0x3cc80bfe	0.02441978
31	0x3cc141fd	0.023591036

weight f4 [32, 64, 3, 3]
0	0xbc4bdcc4	-0.012442771
1	0xbd8ad8c9	-0.0677963
2	0xbc9173a1	-0.017755331
3	0x3bb03c03	0.0053782477
4	0xbc53f423	-0.012936625
5	0x3c38f786	0.011289483
6	0x3d02a4ac	0.031895325
7	0x3aae99c9	0.0013320978
8	0x3c09e063	0.008415314
9	0x3d1736d7	0.036917534
10	0xbcc5b628	-0.02413471
11	0x3d09d449	0.033649717
12	0xbc132592	-0.008981125
13	0x3b9800a0	0.0046387464
14	0xbceadbc2	-0.028669242
15	0x3c8e5c70	0.017378062
16	0x3bfaf9a2	0.007659153
17	0xbcaea221	-0.021317543
18	0xbad9fcc0	-0.0016631112
19	0xbc08ccd5	-0.008349617
20	0xbba527a2	-0.005040125
21	0xbcbe6d38	-0.023245439
22	0xbc0282f5	-0.007965793
23	0x3c8684b5	0.016420702
24	0xbba31e1e	-0.0049779555
25	0xbba79e70	-0.005115323
26	0x3cc22dab	0.023703417
27	0x3cc0096f	0.023441998
28	0xbc9b2834	-0.018940069
29	0xbc1f7374	-0.009732116
30	0xbc15aced	-0.009135467
31	0xbcbc2dde	-0.02297109
32	0x3d19d75a	0.03755889
33	0x3d27b694	0.040945604
34	0x3b62da06	0.0034614815
35	0xbc0fb553	-0.008771258
36	0x389db2e5	7.519665e-05
37	0x365945a8	3.2376065e-06
38	0x35b7fe02	1.3708488e-06
39	0x34a9d336	3.163238e-07
40	0x35fe3989	1.894122e-06
41	0x39968329	0.0002870795
42	0x35d92f51	1.6181531e-06
43	0xb51bc99a	-5.803537e-07
44	0x341a3808	1.4362752e-07
45	0x398394c2	0.000250971
46	0x1a9ffb01	6.616638e-23
47	0x2af3df3d	4.3320374e-13
48	0x37eac37d	2.7986005e-05
49	0x202698ed	1.4111346e-19
50	0x33a636fb	7.739978e-08
51	0xac90584c	-4.102529e-12
52	0x27ac77b9	4.7869394e-15
53	0x3a01ee69	0.00049564854
54	0x3ccb6978	0.024830565
55	0xbb3b3e15	-0.002857094
56	0xbc0a0bb5	-0.008425643
57	0x3bff6e68	0.007795144
58	0x3b0a133c	0.0021068593
59	0x3bf1100c	0.0073566493
60	0x3c593f0d	0.013259661
61	0x3c371f26	0.01117686
62	0xbbd1104d	-0.006380117
63	0xb83b2ae1	-4.462421e-05
64	0x21c65eac	1.3442061e-18
65	0xaf576a97	-1.9592004e-10
66	0x95528cef	-4.252034e-26
67	0xacaca94d	-4.90733e-12
68	0x9a88a90a	-5.652138e-23
69	0x1761919f	7.288522e-25
70	0xa450e27c	-4.529465e-17
71	0x2adb0aaa	3.8909614e-13
72	0xb3c4b022	-9.1589996e-08
73	0x974fa6de	-6.7095923e-25
74	0xace1702a	-6.4073373e-12
75	0x1828d745	2.1822174e-24
76	0x168a1a2e	2.2311624e-25
77	0x199b76b5	1.607457e-23
78	0xaec10ffc	-8.779463e-11
79	0xb61aca45	-2.3065525e-06
80	0x98a32b9f	-4.217856e-24
81	0x18795454	3.222507e-24
82	0xadff5a57	-2.9030263e-11
83	0xb5cab12e	-1.5101739e-06
84	0x156338e7	4.5887173e-26
85	0xb30b8972	-3.2488465e-08
86	0xb3eb537e	-1.09582274e-07
87	0x1acfff9b	8.6026146e-23
88	0xb3fed07c	-1.186572e-07
89	0x342a04c4	1.5834217e-07
90	0xbb42b2b8	-0.0029708575
91	0x3c8f6d3b	0.01750814
92	0x3cb01f40	0.021499276
93	0x3bb2e9df	0.0054600085
94	0x3c86b3a9	0.01644309
95	0xbc57ed07	-0.01317907
96	0xbc933d00	-0.017973423
97	0xbc8a929a	-0.016915608
98	0x3c41931c	0.011814859
99	0x3cf95697	0.030436797
100	0x3c8b864f	0.017031817
101	0x3c07edbd	0.008296427
102	0x3c98442a	0.01858719
103	0xbc5835fa	-0.013196463
104	0x3cb04286	0.021516096
105	0x3cf9e3f4	0.030504204
106	0x3a97f703	0.0011594001
107	0x3cdce085	0.026962528
108	0x3a1a988f	0.0005897367
109	0x3a1c2e8c	0.0005957864
110	0x396ae5d6	0.000224016
111	0xb9293d74	-0.00016139989
112	0x398c21bc	0.00026728015
113	0x38c70be9	9.491278e-05
114	0x39d5cd3c	0.00040779437
115	0x3a126912	0.00055851147
116	0x398eabbb	0.000272123
117	0xb4a348a5	-3.0413972e-07
118	0xb483a134	-2.4517942e-07
119	0x25839847	2.2828065e-16
120	0xb267fc05	-1.3503272e-08
121	0xa457631c	-4.6704642e-17
122	0x1e3854b3	9.758394e-21
123	0x2883912e	1.4606883e-14
124	0x9f4f2c24	-4.3870467e-20
125	0xb4bad8be	-3.48029e-07
126	0xba590887	-0.0008279164
127	0xbc8af820	-0.016964018
128	0xbc32ef2a	-0.010921279
129	0xbb3e0798	-0.0028996225
130	0xbc08a01f	-0.008338957
131	0xb74a11ad	-1.2044254e-05
132	0x3c222bad	0.009898108
133	0xbb39058e	-0.002823207
134	0x3c395f84	0.011314277
135	0xbc4495c6	-0.011998599
136	0xbc8eaaf4	-0.017415501
137	0xbc198a38	-0.009371333
138	0x3d0820ac	0.033234283
139	0xbbed7a6d	-0.0072472603
140	0xbd1f6058	-0.03891024
141	0xbcd1d3ac	-0.025613628
142	0x3ca9b049	0.020713942
143	0xbd22b45a	-0.039722778
144	0xbc926d1e	-0.017874297
145	0xbc718928	-0.014742173
146	0xbc044987	-0.008074171
147	0x3ca24337	0.019807441
148	0xbc261307	-0.010136372
149	0xbd353d0b	-0.04424767
150	0x3bb7ef90	0.005613275
151	0xbcecdc6f	-0.028913705
152	0x3bcf6c9e	0.006330087
153	0x3c8500c6	0.01623572
154	0x3cc1e8d3	0.02367059
155	0xbc27200d	-0.010200513
156	0x3bcdfa60	0.0062859505
157	0xbbae46b9	-0.0053184894
158	0x3cbdf94f	0.023190169
159	0xbb9d4c0f	-0.0048003267
160	0xbd4699ec	-0.048486635
161	0x3c12f5f2	0.008969771
162	0x3c37b62c	0.011212867
163	0x3c1ede87	0.009696609
164	0xbb1f0818	-0.00242663
165	0x3c0a5c2e	0.008444829
166	0x3c22735d	0.0099152
167	0xbd41b097	-0.04728755
168	0x3bfb91ff	0.007677316
169	0x3c8c620d	0.017136598
170	0x3c3ab541	0.011395753
171	0xbb669469	-0.0035183674
172	0xbaea6d38	-0.0017885333
173	0x3bd35b72	0.00645011
174	0x3d0e9ab4	0.034815505
175	0x3bfc0512	0.007691034
176	0x3cbcf22e	0.023064699
177	0x3bf70d02	0.0075393924
178	0x3c763b03	0.015028718
179	0xbad36478	-0.0016127964
180	0x3c097144	0.008388821
181	0xbaedc86f	-0.0018141399
182	0xbb16e996	-0.0023027412
183	0x3d11d46f	0.035602983
184	0x3b6a4405	0.003574611
185	0xbc13f1b2	-0.009029793
186	0xbcd37c26	-0.025816035
187	0x3ad0997d	0.0015914884
188	0xbc5646bc	-0.013078388
189	0x3aed357b	0.0018097603
190	0x3aea210c	0.0017862632
191	0x39f2135b	0.00046172258
192	0x3b0300f7	0.0019989589
193	0x3ac66cad	0.0015138589
194	0x3a85bb27	0.001020287
195	0x3b10f766	0.0022120117
196	0xbac2f662	-0.0014874453
197	0x3ab51711	0.0013816078
198	0xbbdee328	-0.0068019815
199	0xbcecb97e	-0.028897043
200	0x3c6c395e	0.014417974
201	0x3cb1f2ef	0.021722285
202	0xbcaa4185	-0.020783195
203	0xbceb9e9d	-0.028762156
204	0x3b917daa	0.004440029
205	0xbbfbde64	-0.007686423
206	0x3c851a59	0.016247915
207	0xb86319b4	-5.4144955e-05
208	0x31c0df5b	5.613328e-09
209	0xb22ca535	-1.0049281e-08
210	0xb47bf8e0	-2.3466737e-07
211	0x330af0e3	3.2349714e-08
212	0xb4434c77	-1.8188608e-07
213	0xb8f3a532	-0.00011617913
214	0x3325dae2	3.861613e-08
215	0xb679c557	-3.7218758e-06
216	0xb4717bc0	-2.2489894e-07
217	0xab9a284b	-1.0953542e-12
218	0xb6452763	-2.9378214e-06
219	0xbb85e651	-0.0040862937
220	0x329a2a04	1.7947066e-08
221	0x38da865d	0.00010420077
222	0x324e79c3	1.2018464e-08
223	0xafaa22dd	-3.0947592e-10
224	0xac4ee842	-2.940329e-12
225	0x3b8123d4	0.0039410386
226	0x3c9d8692	0.019229207
227	0xbbfc264f	-0.0076949964
228	0x3cd27e2d	0.02569493
229	0xbbc4945a	-0.00599913
230	0x3d30ba8b	0.04314665
231	0x3c909384	0.017648466
232	0xbc2a9e9c	-0.010413792
233	0xbc838f7f	-0.016059635
234	0xb321e913	-3.7697713e-08
235	0xb17d4f53	-3.6861436e-09
236	0x34d3b570	3.9433826e-07
237	0x307fbddf	9.303828e-10
238	0xb1fa8dd4	-7.2920816e-09
239	0x971aface	-5.0076644e-25
240	0xab74d943	-8.6987725e-13
241	0x1f1f11c2	3.368425e-20
242	0x35eff24d	1.7877406e-06
243	0x3cc6183e	0.024181481
244	0x3c21375d	0.00983986
245	0xbcd0afc1	-0.025474431
246	0x3c60c077	0.013717762
247	0x3c2d4c79	0.0105773145
248	0x3cb48373	0.022035336
249	0x3bfdd727	0.0077465954
250	0x3b96b0b7	0.004598703
251	0xbc3363de	-0.010949103
252	0x3c99d343	0.018777495
253	0x3c7b43bd	0.015335974
254	0xbc0bfdba	-0.00854438
255	0x3c48472a	0.012223998

bias f4 [32]
0	0x3d3d1d85	0.04617073
1	0x3d2e4963	0.042550456
2	0x3d20d746	0.0392678
3	0x3bebb4d4	0.0071931873
4	0x3cc5c893	0.024143493
5	0x3cdaa352	0.026689205
6	0x3d1872cb	0.03721885
7	0xbb2f87d9	-0.0026783852
8	0xb7b75af2	-2.185765e-05
9	0x3d2646d6	0.0405949
10	0xbb21d058	-0.0024690833
11	0x3d374dd7	0.04475197
12	0xbc8639b8	-0.016384944
13	0xb98af092	-0.0002650065
14	0xbacade08	-0.0015477547
15	0x3b5ac136	0.0033379323
16	0x3d46939b	0.04848061
17	0xb89fddc9	-7.6230215e-05
18	0x983820f5	-2.3798082e-24
19	0xbd05b290	-0.032640994
20	0x3a81fdfb	0.0009917611
21	0xbc96ce49	-0.018408911
22	0x3c22112f	0.009891792
23	0x3d37b722	0.044852383
24	0xb79b42b0	-1.8508494e-05
25	0xbc1f58bf	-0.009725749
26	0x3d369126	0.044572018
27	0x3c8ba473	0.017046189
28	0xbac91e8f	-0.001534419
29	0xbc0d824f	-0.008637025
30	0xbc220675	-0.009889235
31	0x3d18fe29	0.03735176
