app/src/main/assets/Dark_1_model.pt (torch, 336899 bytes, 14 tensors)

weight f4 [32, 3, 3, 3]
00000000: d597 96ba d994 c03c cd06 33bc 47cb 573c
00000010: 3dc7 023c ed75 48bc 26b1 bfbc 2bc8 963b
00000020: 5111 c3bb 7ed8 503c 48ba e8bc d250 7f3c
00000030: 9c50 2abc 04fe 763c 2ec6 e9bb 0086 793c
00000040: 2597 afbc 118d 9fbb 4e42 91bc 6c5b e03c
00000050: c015 e6bb 17ce 7cbc 9a98 b13b 2b0a b03b
00000060: d51d babc 06dc 913c a92b 67bd 681a 46bc
00000070: dd6a 0b3d 11b0 b13c 4cdd a7bc 0b11 37bc
00000080: a5c9 ea3c d149 943b bf66 293c 3b29 b43b
00000090: f744 573c b66a 40bd ce4d 103c 411a 123d
000000a0: 993c 9abc c48e 263d bd76 a1bb 3d6d 79bc
000000b0: 86c5 843c 1bf8 b83b a17c 8cbc a25e 6bbb
000000c0: 8703 a0bc cb65 93bc 11e9 0ebc 1477 bc3c
000000d0: 6b5d 1b3c fd8c ee3c 101d ee34 b947 4109
000000e0: d6e1 0784 7d47 5e88 157e 1903 7114 2621
000000f0: 022c 52b8 00e6 a90e 1d55 0a8f 6e46 0e11
00000100: acbd d517 acfa 2389 28e7 8e2f 6714 80ad
00000110: 2082 ca0e 325f 062e 3799 c339 90ab 0309
00000120: 4551 018e 2293 370d e13f 8a05 6f57 288d
00000130: f942 a705 5555 17a1 3295 c6a4 d758 1bb6
00000140: 9749 9b28 f218 f9bc d8d9 cf3c b708 103c
00000150: 780b 98bc 0eea a9bb 7e09 0c3d 3f8f 1abd
00000160: 371d 223c 6b48 bfbc ccc1 21bd 9de3 05bd
00000170: 2416 0b3c 8818 5bba fad6 97bb 6fd3 d7ba
00000180: f9df fabc 955b bc3c 8bff 813a 39dc 5d3c
00000190: 76df d73b d9e3 373c 3af7 0ebd 7545 b93c
000001a0: 6294 723c 4c72 a03a 4b7a a13b 8889 8a3c
000001b0: b2da d315 db8f 1e11 c119 b0b5 b732 7e11
000001c0: 50d6 690f 1d0e 068f b39d cb08 939d b486
000001d0: 719e 628a d784 42a7 65e6 bd37 2669 cf84
000001e0: 26b2 8aae 16ff 4e88 99ae a809 ac47 bb86
000001f0: daac 9795 814b 8da8 014f e583 1207 e712
00000200: 639e b216 738e 6186 7fa9 1015 7e26 9238
00000210: d50b b203 f67f d7a8 811b b08b 42d8 c53c
00000220: 612b 91bc fd8c 9abc c9fb 0f3d f1ac dbbc
00000230: f561 2a3b b8a9 5cb9 5865 323d fa0f 61bb
00000240: 964e 233c b6e5 03bc b7f7 f83c 5c32 e13c
00000250: 767b a23b adc4 5f3c 9283 11bb 8094 4c3c
00000260: 53aa f9ba 7da3 ecbc d6ff 873c 278e f1bc
00000270: 6ff0 cc3b dc6b 023c 7e9a 3cbc bb04 0a3d
00000280: 173d 9bbc bf2b e13c 4224 97bb 9bc7 c0bc
00000290: 9135 bf3b 1aa4 4f3d c1cd 733a 9519 22bb
000002a0: 12e1 193c 62f1 6bbc 6eb2 1cbb d638 db3c
000002b0: afd9 c63c 38e7 1fb9 f390 b1bb 37d5 ddbc
000002c0: 0da3 9f3b 2919 f9bb c650 06bb 5011 dcb9
000002d0: 7a2b e8bb 3af2 813c 197f c0ba bdaf 983b
000002e0: 39ca 4abb 5f4f c53b 2dba 8c3c 62b6 d9bb
000002f0: e650 9db9 e9f2 a5ba 1044 f53c acf7 a9bc
00000300: 3dcf 78bc 17b9 943c 99f4 30bc 2ac4 94bb
00000310: 6f5a 19bd eb01 e8ba 9917 ba3c 2884 6abc
00000320: 8079 48bd 9a1e 303c a732 a43b 28c2 8bbc
00000330: fa35 cabc 9461 97bc 9676 bfbc 8aa4 21bd
00000340: e80c fabc 3979 f33c 19f2 10bd 509a acbb
00000350: 1722 bebb 2397 e1ba de32 b3ba bc8b 4cbc
00000360: ec31 93bc 7414 b2bc 0153 91bc b598 923b
00000370: 84ea 573c 8d05 713a 9347 cb3b 431a 043c
00000380: de5d a63c 518e cbbc 6ca9 05bd b17d f1bc
00000390: 3cf0 9bbb 0b8e dfbc c6c2 5abc 6530 033d
000003a0: 0880 c83c 1437 f53b 37c0 cd39 7be6 aaba
000003b0: de09 60bc 978c 92bc c6ba 26bc 3415 083c
000003c0: 497d 5abb 159a 16bb bdc0 81bc 7395 103d
000003d0: 942f 0dbc 6801 d53c 6781 d7bc 2eaf b43c
000003e0: 8747 c4bb bdc7 0d3d 812c 8abb 2c7c 5c3c
000003f0: d276 33bc 7860 ea3c 3b9d 4a3b 52f4 c4bb
-0.0011489341 0.023508476 -0.010926914 0.013171024 0.007982072 -0.012235147 -0.0233999 0.0046014986
-0.005952992 0.012746928 -0.028409138 0.015583234 -0.010395195 0.0150752105 -0.0071342206 0.015229702
-0.021434376 -0.0048691113 -0.017731812 0.027387343 -0.007021636 -0.015429995 0.005419803 0.005372306
-0.022719303 0.01780511 -0.056438122 -0.012091257 0.03403746 0.0216904 -0.020491265 -0.011173497
0.028660605 0.004525401 0.010339438 0.005498079 0.013139001 -0.046976767 0.008807613 0.03566957
-0.018827723 0.040663496 -0.004927485 -0.015223798 0.016207468 0.005644811 -0.017149271 -0.003591456
-0.019532932 -0.017992875 -0.00872256 0.023006 0.009482722 0.029119963 4.43521e-07 2.3265254e-33
-1.5972873e-36 -6.688973e-34 4.5107394e-37 5.627004e-19 -5.0108887e-05 4.18832e-30 -6.8203175e-30 1.1223528e-28
1.3812682e-24 -1.9738277e-33 2.5993896e-10 -1.4560976e-11 4.992215e-30 3.0552623e-11 0.00037307452 1.584922e-33
-1.5939607e-30 5.6568333e-31 1.3000923e-35 -5.187424e-31 1.5729206e-35 -5.1273726e-19 -8.612156e-17 -2.3148511e-06
1.7240371e-14 -0.030407403 0.02537243 0.00879114 -0.018560156 -0.005185372 0.03418874 -0.037734266
0.009894661 -0.023349961 -0.03949146 -0.032687772 0.008489165 -0.00083578425 -0.0046337815 -0.001646621
-0.030624377 0.022992888 0.0009918077 0.013541275 0.006587918 0.011223757 -0.034903742 0.022616128
0.014805885 0.0012241094 0.0049279085 0.016911283 8.556726e-26 1.2508331e-28 -1.3120517e-06 2.0052695e-28
1.1529062e-29 -6.609428e-30 1.2254693e-33 -6.794001e-35 -1.0911304e-32 -2.699492e-15 2.2637842e-05 -4.876203e-36
-6.307159e-11 -6.229072e-34 4.060872e-33 -7.0446894e-35 -6.1261126e-26 -1.568689e-14 -1.3477549e-36 1.45798925e-27
2.8857407e-25 -4.2422452e-35 2.9214277e-26 6.968992e-05 1.0464616e-36 -2.392529e-14 -6.783412e-32 0.024150971
-0.01772088 -0.018866057 0.03515223 -0.026815863 0.0025998328 -0.0002104406 0.04355368 -0.0034341798
0.009967467 -0.008050373 0.030391557 0.027489834 0.0049585653 0.013657731 -0.0022203666 0.012486577
-0.0019047953 -0.028886551 0.016601484 -0.029486729 0.006254248 0.007960286 -0.011511443 0.033695918
-0.018950028 0.02748668 -0.0046124766 -0.02353268 0.005835243 0.05069361 0.0009300374 -0.0024734486
0.00939204 -0.014400812 -0.0023910063 0.0267605 0.024273722 -0.00015249557 -0.0054188906 -0.027079208
0.004871732 -0.0076018763 -0.0020494922 -0.0004197457 -0.007085261 0.015862573 -0.0014686316 0.0046596215
-0.0030943288 0.0060214247 0.01717862 -0.006644056 -0.00030005648 -0.0012660894 0.029939681 -0.020747982
-0.015186128 0.018154664 -0.010800504 -0.004539986 -0.03743976 -0.0017700767 0.02271633 -0.014313735
-0.048943996 0.0107494835 0.005010921 -0.017060354 -0.024683941 -0.018479146 -0.023371976 -0.039463557
-0.030523732 0.02972089 -0.035387132 -0.005267419 -0.0058024037 -0.001721118 -0.0013671776 -0.012484487
-0.01796814 -0.021738268 -0.017739775 0.0044737705 0.0131784715 0.00091942475 0.0062036007 0.008062902
0.020308431 -0.024848135 -0.032632276 -0.02947888 -0.004758863 -0.027289411 -0.013352102 0.032028574
0.024475113 0.0074833725 0.00039243858 -0.0013038659 -0.0136742275 -0.017889304 -0.010176366 0.0083058365
-0.0033338836 -0.0022980024 -0.015838975 0.035298776 -0.008617301 0.026001647 -0.026306821 0.022056188
-0.005989972 0.034614313 -0.004216731 0.013457339 -0.010953622 0.028610453 0.003091647 -0.0060105706

bias f4 [32]
00000000: 40c1 cd3d 103c 8a3b fa83 0fbd 6fe4 1d3d
00000010: 8fc1 69bc 2a27 8b3d 970e cf3d f7ac f13d
00000020: 9fb5 c33d 14e3 05be ba58 59bd f3cb 1e3e
00000030: b1ce 12bc 0dbc 3d3e 2a89 153e 55b8 3d3e
00000040: 26d8 af3d 7d9b 46bc 60d5 373e 2178 10bd
00000050: 8d0d 4b3d 3541 be3d bd83 e53c c33b 8dbc
00000060: c5d8 053e a169 4d3d 442a 32bc 0926 293e
00000070: a934 b9bb 8bf7 aebc 0057 203e b281 e93d
0.10046625 0.004218586 -0.035037972 0.03854793 -0.014267339 0.06794579 0.10110205 0.118005686
0.09556126 -0.13074905 -0.053063132 0.15507488 -0.008960412 0.18528767 0.14603105 0.18527348
0.08586149 -0.012122032 0.1795249 -0.035270814 0.04957347 0.09289781 0.02801692 -0.01724041
0.13070972 0.050149564 -0.010874335 0.16518416 -0.0056520295 -0.021358272 0.15658188 0.114016905

weight f4 [32, 32, 3, 3]
00000000: ee60 3bbb 4320 f7bc 9d67 03bc 03f7 8d3c
00000010: ecda 6ebb cf41 e73b ad25 573d f61f f43c
00000020: b541 5c3d 8c6e d33a cf10 52bb 0589 5ebc
00000030: 595d 1c3c 218f 9dbc dd28 a63a 362e 90bc
00000040: b792 1abd 9c3b 34bd 6180 0eb6 72a0 3e30
00000050: 2c2d 9005 85a2 17b3 e068 b1b2 21cc 88ad
00000060: c5e5 1788 b561 8b8e a9b5 7a36 7245 8d3c
00000070: 7ee7 cabb 7291 efbc 8f1d 063d edc7 54bc
00000080: 5634 48bc 5176 633d 405d 273c 4339 f1bc
00000090: 4f06 b627 56e2 a50e 557c ba8e 0b5c 9795
000000a0: d4f9 0a0d 6552 9ea5 3e02 ddae 02fa aa9c
000000b0: c20e c210 e3ca 8c3c a324 99bc cbab 41bc
000000c0: ec38 95b9 d207 2e3d d9ab 533d d61f 41bc
000000d0: d364 4fbc af7b 8b3c 7cf6 33bc cafa 57ba
000000e0: 5a69 b93c 4dae a0bc 93bb ec3b 9cde c6ba
000000f0: 5c38 22bb 136f cabc fc84 013c 76ba 62bc
00000100: a66a 263b 6061 8e3b aab5 513b 5332 4cbc
00000110: 88f7 083d d410 163c 415c 84bc a9c5 3e3d
00000120: a3d9 1d3b 406c 963c 0395 0f3d d274 8cbc
00000130: 07ab b7bb 013a 743b e030 e0bc c610 873b
00000140: 03c4 a8bc cb0f 183c 5003 223c 3593 313c
00000150: dce2 793c c46d 653c d8a2 0ebb 9ac7 e73c
00000160: 8001 b63c 9423 eb3b cbe6 dd85 c6e9 2823
00000170: b6e0 0197 b479 8c84 e1dc 7db1 e66a 35b5
00000180: 39cb 97ad e533 5686 784f aeaf 5388 873c
00000190: 5fb8 64bb cc9c 52ba 17b5 c73c 0c82 afbc
000001a0: f778 76bc 5ed1 5d3b c792 56bb 4810 0b3d
000001b0: 0d0c 6e04 d06e f287 1d7d 4206 f14e 0ab8
000001c0: e5bf cbad 31f9 fbb0 9898 4c0f 5c3e b586
000001d0: ccfc c38b 7e74 bebb b170 c23c 31ba e73b
000001e0: b837 abbc 46b0 1d3c 9975 893c caf3 99bc
000001f0: 03a4 c6b9 5f9a 003d 3327 21bb 78f7 e43b
00000200: 561d f9b9 c306 813c 5daf e7bc dfae d43c
00000210: 9aca 923c 2235 c53c 27ff ae3b 15c6 f5b8
00000220: 2f0e 5cbd 6efa 8dbb 6427 713c e3e3 b8bc
00000230: 3f9f 62bc 416f ce3c 5f20 35bb c27b 0abc
00000240: be9b b1bc 525b 7cbc d112 94bc 29e8 4a3a
00000250: 25b0 483b 0e3e f53c 02c2 23bc 32e1 5e3d
00000260: dc74 b4bc c60f a318 28e3 c18c 6ee7 7f91
00000270: cddc 8ca2 9a57 2929 2ca3 6586 c347 1607
00000280: b019 0e9f 49ef e586 d755 aabc 25ab 493b
00000290: 79b5 553a 1bbf 9bbc b85f 6e3c 6d0d c83c
000002a0: 41d0 34bc 0237 6e3c 5e79 9cbb 733c f596
000002b0: 5616 7889 dd44 dd34 64f4 9404 280e 8586
000002c0: 4a20 b824 61dc ec1e 18ed 8a1b a06e 0606
000002d0: 838d ba3b 26be 963c f568 373b 1efa b0bc
000002e0: 4d8d 273c eba1 d1bc 3186 083a e164 b7bc
000002f0: b0b4 28bd e865 a73c 5bb2 8039 fa94 bc3c
00000300: 6b83 293c 8575 503c 673e 9c3c b157 483c
00000310: 8114 513d 455d 203d 8c5c f73c 5027 53bb
00000320: 8a13 813b f7bd 9b3c 2a6b c83b 9819 ec3c
00000330: 2f39 ce3c 2809 f03c 7c29 c23c 9485 3833
00000340: 86fa 9985 4dcb 0b84 50aa 2f33 339c 092c
00000350: f725 7d22 6eec 90b7 ac3e de04 f670 d8b4
00000360: 2891 53ba 11f1 4bbb bfc7 afbc 6034 dc3c
00000370: 2a98 803b 8e7f 043c db94 ffbc 7a03 b73c
00000380: 8ee9 8e3c a8b6 a83b 0887 363b 7b2e 4c3d
00000390: 553a 55bc 9d71 3a3c 52d4 3b3c a9f5 4b3a
000003a0: 2d26 ebbb 6093 363c 895f 9aab e59e 1693
000003b0: 8874 2c86 3916 5f34 4c11 8003 a2c0 b78c
000003c0: 4b56 ba8b 984a b418 6734 3c07 1d11 c0bc
000003d0: 4394 83bc 2f6f 023d 2d52 64bc 112b bdbc
000003e0: 0d90 af3b 3ff0 d73c f57c 2d3b 707b 6fbc
000003f0: 7bfe a387 0ac1 52aa b6af d5ad 1d68 0391
-0.002859171 -0.03016675 -0.008020309 0.017329698 -0.0036446406 0.0070574055 0.052526165 0.029800396
0.0537736 0.0016130968 -0.0032053476 -0.013582473 0.00954374 -0.019233288 0.0012676973 -0.01760016
-0.037737574 -0.04400216 -2.1234375e-06 6.9349604e-10 1.3558288e-35 -3.5305238e-08 -2.0653204e-08 -1.5552061e-11
-4.5710002e-34 -3.4360234e-30 3.7358643e-06 0.017245028 -0.006192147 -0.029244158 0.032743033 -0.012987119
-0.012219509 0.055532757 0.010215104 -0.02944625 5.0521987e-15 4.0893594e-30 -4.5972268e-30 -6.113363e-26
4.2825253e-31 -2.7464464e-16 -1.0050315e-10 -1.1314282e-21 7.6542246e-29 0.017186588 -0.018694228 -0.011820744
-0.00028461905 0.042487927 0.05167756 -0.011787375 -0.012658316 0.01702675 -0.010984059 -0.00082389696
0.022633243 -0.019614363 0.007224509 -0.0015172544 -0.002475283 -0.024711167 0.007905241 -0.013838401
0.0025393157 0.004345104 0.003199915 -0.01246317 0.03343919 0.009159286 -0.016157271 0.046575222
0.002408602 0.018362164 0.035054218 -0.017145548 -0.005605105 0.0037266018 -0.027367055 0.0041218726
-0.020601278 0.009281109 0.009888485 0.01083832 0.015251841 0.014003221 -0.0021764543 0.02829342
0.022217512 0.007175872 -2.086752e-35 9.156802e-18 -4.1965773e-25 -3.302561e-36 -3.69419e-09 -6.758331e-07
-1.7256961e-11 -4.0287053e-35 -3.1706882e-10 0.016544497 -0.0034899933 -0.0008034229 0.024378343 -0.021424316
-0.015043489 0.0033846716 -0.0032741295 0.033951074 2.7982299e-36 -3.6477243e-34 3.6579263e-35 -3.2975284e-05
-2.3163646e-11 -1.8333478e-09 1.0087365e-29 -6.817626e-35 -7.5491634e-32 -0.005812227 0.023735376 0.0070717563
-0.020900592 0.009624546 0.016779708 -0.018793005 -0.000378877 0.03139722 -0.0024590015 0.0069875084
-0.00047514838 0.015750295 -0.028281862 0.025962291 0.017918874 0.024073187 0.005340475 -0.00011719406
-0.053724464 -0.004332832 0.014718864 -0.022569602 -0.013831913 0.025199534 -0.0027637703 -0.008452358
-0.021680709 -0.015402632 -0.018075379 0.0007740283 0.0030622568 0.029936817 -0.009994986 0.05441398
-0.02202838 4.215044e-24 -2.9873073e-31 -2.0187268e-28 -3.818086e-18 3.760152e-14 -4.3189993e-35 1.1305835e-34
-3.0090918e-20 -8.6491824e-35 -0.020792885 0.0030772176 0.00081523467 -0.019012025 0.014549188 0.024420464
-0.01103598 0.014539482 -0.0047752103 -3.9620034e-25 -2.9862416e-33 4.1214562e-07 3.501907e-36 -5.004984e-35
7.985198e-17 2.5078619e-20 2.2983403e-22 2.5283873e-35 0.005693139 0.018401217 0.0027986143 -0.02160364
0.01022656 -0.025589904 0.00052079844 -0.02238697 -0.041187942 0.020434335 0.00024546948 0.023020256
0.010346274 0.012723331 0.019072725 0.0122279385 0.051044945 0.03915145 0.030195497 -0.0032219477
0.003939097 0.01901148 0.0061162906 0.028820798 0.025173752 0.029301241 0.023701422 4.2962327e-08
-1.4480079e-35 -1.6432723e-36 4.090026e-08 1.955558e-12 3.4307992e-18 -1.7276234e-05 5.2249504e-36 -4.0315325e-07
-0.0008070641 -0.0031119029 -0.021457551 0.026880443 0.0039243894 0.008087052 -0.03119891 0.022340525
0.017445352 0.0051487274 0.002785148 0.049849015 -0.013014396 0.011379627 0.011464195 0.00077804417
-0.0071761818 0.011143535 -1.0968874e-12 -1.9011003e-27 -3.2435218e-35 2.0776578e-07 7.527135e-37 -2.831155e-31
-7.1774433e-32 4.660423e-24 1.4158948e-34 -0.02344566 -0.016061908 0.031844314 -0.013935608 -0.023091825
0.0053577484 0.026359675 0.0026472185 -0.014616832 -2.4675084e-34 -1.8718721e-13 -2.4293328e-11 -1.036616e-28

bias f4 [32]
00000000: aca5 103c ce10 2c3d 9625 003d 4da7 1bbd
00000010: dd92 90b8 ddbd dfbb 5537 0cbc 8b84 d6b9
00000020: 60fc e8b8 b6d8 41b9 e4dc 593d 4566 313d
00000030: 4f68 0eb8 68e4 9cb9 941a ecbb b296 05bd
00000040: 0d3d 5b3d 234e 91bc 4080 2d3a c56d b9bb
00000050: 6a0e 053d 2eef 22bc 9c79 e53c 37be 4eba
00000060: 4f92 50ba 900e 243d 7582 22ba 4c3d 6fbc
00000070: 98f2 663d 1ce4 babc 148c 4d3d b7f9 fc3c
0.008828562 0.042008214 0.031285845 -0.038001347 -6.8938105e-05 -0.0068280534 -0.008558114 -0.00040916013
-0.000111096306 -0.00018486645 0.053189173 0.043310422 -3.3952583e-05 -0.00029924815 -0.007205317 -0.032614417
0.05352502 -0.017737454 0.0006618537 -0.0056588375 0.03248445 -0.00994472 0.02801209 -0.00078866206
-0.0007956372 0.04005295 -0.0006199249 -0.014602017 0.0563837 -0.02281385 0.050182417 0.030880792

weight f4 [32, 32, 3, 3]
00000000: 1a78 0cbc 5583 193c 872c 093d e9ef c3bc
00000010: 1f5c 8abc 605e 78bc a114 2cbc c886 81bc
00000020: 7803 f13a 0995 d23c 8106 dbbc fd97 80bb
00000030: 3d02 cdbc c019 a93c 8884 2cbc 2459 4c3a
00000040: 7a97 043c a87e b13c 42c9 173c 9fc4 00bb
00000050: 3a54 ee3a f23b ad3a 0d37 0cbd c961 ae3b
00000060: 10a8 fdbc c7ec 61bd 09ee 2ebd c035 523d
00000070: 9bf6 4d3b 0f8e 783c 2e97 083c 9487 f83c
00000080: 755a 663c af6c 323d fe71 823c 536c b23b
00000090: a1bb 7d2d 1a67 4db5 fb56 0dac 0e6f ce2c
000000a0: ee7b 34b3 0125 22ad 2ff7 e7ac 36ae 212d
000000b0: 7080 5fb2 6b08 d885 ba7a 5d05 001d 2206
000000c0: 410f 9122 8c7f a906 8eee a198 7055 9e2e
000000d0: d75a 8e0b 70ba 1114 21f2 9f3c 4847 efbb
000000e0: 846d f33b b358 00bd f719 d1bc 6c19 5a3c
000000f0: a268 fdbb 0328 953c f5f6 4ab9 f2ae 5015
00000100: d8e2 df05 5e83 a788 558b 3f16 12ae c4b3
00000110: 9e59 1405 948b 5231 411e 3b91 573f 211c
00000120: e285 0019 5eee 0384 c825 6606 a39c 5518
00000130: d956 cc39 48d9 99ab e388 8908 4d15 2205
00000140: 501c 020d 4569 3385 2d24 0310 8091 0695
00000150: d201 ba06 464c 85a8 4cca 9c95 7ffc 57b3
00000160: 5589 f08d 8724 3e8d 15aa 043d f3cd 6bbb
00000170: 3e4a b83c a5ae 9abb d739 96bc a696 193c
00000180: a1ed b9bc f137 d83b 398a 9d3b aed2 b1bc
00000190: bb17 30ba a2b4 54bc ac3f 0c3a 98d0 8ebc
000001a0: c8c1 ecbc 4aea 05bc 436b 5d3a bd89 1cbd
000001b0: 0167 dd27 46c7 4828 c9e3 8428 f459 6f28
000001c0: 2512 50b2 93ac 5428 3f00 4da7 b020 5ab3
000001d0: d700 4a28 09ec 230c 430e e21c a589 8408
000001e0: c035 4036 acb0 5233 c4f2 d99f 41e1 2421
000001f0: fe1b b389 8899 f9af 4284 493c 6dcc 123c
00000200: 9bc7 453c 3f6d 7bbb 0a6b 10bc 9b46 83bb
00000210: ea1d f2bc 84c7 bbbc 2d2c 9ebc 3e83 163c
00000220: ed9a 8f3b f455 d9bc f9fa 80bc 3473 a9bc
00000230: bc16 bd3c 9556 e73b 1ed5 86bb ab07 4e3c
00000240: 0392 92bc 3d6b 1d3d 8d3d 903c 6724 ab3c
00000250: 7dab 4cbc bc4f 6e3c 020d 943c f2c2 2f3c
00000260: b7e0 263c 77cb cdbb 1d6a a43b 5b42 c83b
00000270: f6dd 093d ba0a 8cbc ae4c 97bb d778 493c
00000280: fd33 3e3b c297 453c bc7a 9cba 86a3 f0bb
00000290: 4563 0f3c cbb8 0dbb d5aa e6ba 2582 5c3c
000002a0: f0b8 343a 157a 3e3c 1b05 d53c 308a efbc
000002b0: 5a80 6dbc a216 9dbc 88fe 93bc 6b0b 433b
000002c0: 47df 97bc f4cc 3dbb ad49 453c 7918 5f3c
000002d0: 0f47 183d e04f 993c 18f1 4e3b 784b eb3b
000002e0: a8d9 c4bc 8b77 1a39 01cf 153d 9b82 c73c
000002f0: 2cac 853c 0492 9d3a a8d8 a4ba e19c 523b
00000300: 8e38 cdbb 8cb7 b3ba f20a 03bb 0b4b dfba
00000310: 2a5e cc39 32e4 eb39 2b47 3f3d 5aeb a33c
00000320: 2ada d03c bafc 003d c1f3 693c fff4 2cbc
00000330: 773a eb3c 459a 98bb bc95 033d da0e da2e
00000340: 9396 8b35 844a 7b2e 7acf 3e2e 7306 e0ae
00000350: 0bdd 0e34 61f4 1e2e 9ca7 c4ad e804 e12e
00000360: 9a06 70ab 5af1 5caa 3c6e daa9 ab64 2c36
00000370: 7dea 522c afe0 a42c d69d 63ac 9af0 77ac
00000380: 4027 e1ac 19fa 5d3d 4114 d7bb f6e7 a53c
00000390: e049 df3b 6bdc 083d 8dc1 873c 8e70 f43c
000003a0: 66ce 203d 1239 4d3d 9f90 07b8 2afa bd38
000003b0: 1115 8a38 e642 b838 3302 c838 a757 c5b7
000003c0: 398f 84b7 ad7f c938 c797 cf37 120a d23c
000003d0: d043 093c 0768 743b 9533 c5bc 4a08 08bc
000003e0: 46d9 bd3b 7d01 67bc c93d 123c dc7c e9bc
000003f0: dc49 46bb 9ac0 db3b c332 133c 413f 84bc
-0.008573556 0.009369691 0.03348973 -0.023918109 -0.01688963 -0.0151592195 -0.010502965 -0.015811339
0.0018387875 0.025705831 -0.0267365 -0.0039243684 -0.025025481 0.020642161 -0.010529645 0.00077952654
0.008092755 0.02166684 0.009264292 -0.0019648445 0.001818306 0.0013216718 -0.034232188 0.0053217155
-0.030963928 -0.05515745 -0.042707477 0.05132079 0.0031427506 0.015170588 0.008336825 0.030338086
0.014059653 0.04356068 0.015923496 0.005445042 1.4423047e-11 -7.6518484e-07 -2.008559e-12 5.8672017e-12
-4.202223e-08 -9.21685e-12 -6.5928578e-12 9.190473e-12 -1.3009512e-08 -2.0315635e-35 1.04139114e-35 3.049012e-35
3.931848e-18 6.375815e-35 -4.1858403e-24 7.200185e-11 5.483309e-32 7.3573975e-27 0.019524636 -0.0073021986
0.0074288268 -0.03133459 -0.025525076 0.013311725 -0.0077334205 0.018207556 -0.0001935622 4.2143273e-26
2.1054148e-35 -1.0081831e-33 1.5472823e-25 -9.1586244e-08 6.9753866e-36 3.0638363e-09 -1.4761022e-28 5.3352296e-22
6.644482e-24 -1.5508429e-36 4.328595e-35 2.7608686e-24 0.0003897462 -1.0931612e-12 8.2775695e-34 7.621116e-36
4.0093423e-31 -8.4358745e-36 2.5863063e-29 -2.7175864e-26 6.99681e-35 -1.4799045e-14 -6.3327066e-26 -5.0288232e-08
-1.4824203e-30 -5.859224e-31 0.032388765 -0.003598091 0.022496339 -0.0047205263 -0.018338127 0.009374296
-0.022696318 0.0065984656 0.004807737 -0.021706905 -0.00067174033 -0.012982519 0.0005350064 -0.01743345
-0.028900996 -0.008173535 0.0008446464 -0.038217295 6.14515e-15 1.1145441e-14 1.475373e-14 1.3286671e-14
-1.2111319e-08 1.1805785e-14 -2.8449598e-15 -5.078681e-08 1.1213435e-14 1.2628092e-31 1.4959112e-21 7.976821e-34
2.8641516e-06 4.9055117e-08 -9.23047e-20 5.586348e-19 -4.3119006e-33 -4.5401927e-10 0.012299599 0.008959872
0.012071515 -0.0038364676 -0.008814583 -0.0040062196 -0.02955528 -0.022922285 -0.019308174 0.009186564
0.0043824823 -0.026530243 -0.015744673 -0.020684816 0.02308213 0.007059882 -0.004114761 0.01257507
-0.01789189 0.03843235 0.017607475 0.020891381 -0.012492058 0.014545377 0.018072609 0.010727631
0.010185412 -0.0062803584 0.0050175325 0.006111426 0.033658944 -0.017094959 -0.004617295 0.012296877
0.0029022687 0.012060108 -0.0011938433 -0.0073437123 0.008751695 -0.0021625038 -0.0017598519 0.013458763
0.0006894013 0.011625786 0.026003411 -0.029240698 -0.014495933 -0.019175831 -0.018065706 0.0029761444
-0.018539084 -0.0028961273 0.012041491 0.013616675 0.03717714 0.018714845 0.0031576809 0.0071806274
-0.024029568 0.00014731118 0.036574367 0.02435427 0.01631745 0.0012021665 -0.0012576776 0.0032136964
-0.0062628454 -0.0013711317 -0.0019995538 -0.0017035914 0.0003898007 0.00044992712 0.04669873 0.020009685
0.025494654 0.03149102 0.014279307 -0.0105564585 0.028714402 -0.0046570622 0.03212522 9.9161304e-11
1.040013e-06 5.7136976e-11 4.3385275e-11 -1.0187486e-10 1.3305196e-07 3.6142093e-11 -2.2357054e-11 1.0232687e-10
-8.527429e-13 -1.9623661e-13 -9.7002674e-14 2.5688594e-06 2.9972962e-12 4.6861052e-12 -3.2346257e-12 -3.5234372e-12
-6.3992422e-12 0.05419359 -0.0065636938 0.02025221 0.0068142265 0.033413332 0.016571784 0.029838827
0.039259337 0.050103255 -3.2321197e-05 9.058819e-05 6.584277e-05 8.7862645e-05 9.537153e-05 -2.3525046e-05
-1.580232e-05 9.608208e-05 2.4747e-05 0.025639568 0.008377984 0.003729345 -0.024072448 -0.0083027575
0.0057937233 -0.014099476 0.008925864 -0.02850192 -0.0030256426 0.0067063095 0.0089842705 -0.016143443

bias f4 [32]
00000000: ef90 52bc 039f 87ba afa4 dfb9 8084 0ebd
00000010: c80d 4d3d a5b7 ec3c 0c7f 1c3d fcca 7d3d
00000020: ff84 4ebb bf6f a8b8 941c 503b 8e2f 873c
00000030: b52c 643c 1dc0 e53c 2563 573d ea3b 533d
00000040: 7142 593d fa9d 3aba 0f55 413d cf74 77b9
00000050: 0753 543d 27de 7b3d fa09 6f3d d10e 42bc
00000060: 182d e63c 9572 92b9 8711 ba3c 64e7 a33b
00000070: f58c dab5 2315 83bc 3467 05bb 76d2 b03c
-0.012851938 -0.0010347072 -0.00042656573 -0.03479433 0.05006197 0.028896162 0.0382071 0.06196116
-0.0031512377 -8.0316786e-05 0.0031755315 0.016502168 0.013926675 0.028045708 0.052584786 0.05157081
0.05304188 -0.0007118877 0.04720026 -0.0002359927 0.051836994 0.061491158 0.058359124 -0.011844353
0.028097674 -0.0002793266 0.022713436 0.005001949 -1.628329e-06 -0.01600129 -0.0020355703 0.02158473

weight f4 [32, 32, 3, 3]
00000000: 21cb 03bc d758 adbb 3c37 6abb 3e39 0cbd
00000010: 7650 23bc 1945 94bb a860 40bd afd2 0abd
00000020: e55f a3bc 55dd 852c 0f06 772c e4a6 68af
00000030: 493d 29b7 4a6a d1b9 09ea bbac d686 59b1
00000040: d95b 9c2c 2775 6e2c 08f3 d23c 5777 7b3c
00000050: 2079 343c 0699 e93c c09f 813c 7d59 0b3c
00000060: 1283 3e3d e121 f63c c789 8e3c 7788 923d
00000070: 2d7b d83b 7e3d d4bc 3643 273d 318b ed3b
00000080: c103 f5bc b017 283d 29db 48bc 5b16 f0bc
00000090: dc4b dbbc f4fe a6bb 4de7 a23c de4d f63a
000000a0: 6a1a c0bb 52f1 d2bb 66a3 443c e045 383c
000000b0: 1f55 b9bc 00c7 d83c 9a82 a03b 0693 423c
000000c0: df9c 2e3c e574 7739 50e5 a73b e1a2 333d
000000d0: 4c15 973c f0cd 583c a189 4b3c e8e6 ae3c
000000e0: ce24 243d b420 ad3c 1fa2 0bbd 62b0 d8bc
000000f0: 9ecf 7f3d a4e8 ca39 4be8 723c c1d8 823c
00000100: 217f 7d3c 5711 0cbc 1df9 183c d3ab 9d3b
00000110: deb7 a0bb 79f5 0a3d a17e 7dbc 6416 b63c
00000120: 7939 033d 3fd0 173c c571 963c 71a8 a33c
00000130: 5e10 fa3b 1fa6 b73b 4f61 ab3c f3c0 d23b
00000140: c04c 883c 8ab0 1303 9096 068b 737a 8819
00000150: 94ec 1cb4 a3e7 8e1c 4a80 01b5 1613 b799
00000160: fcb3 1791 2511 b60b c757 c7bc d9a5 8cbc
00000170: b365 9dbb d36b 71bc 9e40 823a bfab 25bb
00000180: 18b7 08bd a32d 73ba 761c b93b c356 04bb
00000190: f63a aa3b 761e 133d f181 523c 6221 09bb
000001a0: 3de0 0f3c a5bc 54bc c289 37bc c7f1 c13c
000001b0: d6a1 a43c ebac d5bb 072b a63c 0e6c 023c
000001c0: d7fe 70bb af1e 143c 593f 523c 5d2c 613b
000001d0: 2fbb 193d b8d2 313d 21ff 383c f25c 123d
000001e0: 85ce 543c 7077 54bc 6ffa c53a c854 cd3c
000001f0: 5886 ae3c 2f54 db3c 922c 8e3c a3c0 06bb
00000200: e538 453d c4e2 a43c 2c7b 223c cb5c 7a3c
00000210: 3848 27bc ae09 ea3a 85a2 133c 06a7 d23c
00000220: 70f3 f038 6771 ea3c b17f b83c 2727 32bd
00000230: eaf8 91bc 13ff 823c c253 17bd 0a78 f53b
00000240: 3eb3 653c 65ba 343d c183 963c 6830 053c
00000250: 39e2 543c 2610 6bbb acf9 c73c e7ca 853c
00000260: 8d07 213b 2f16 89a7 d31d 093a 69d1 7518
00000270: 40e8 b218 d0dd 2999 4e70 2f19 fbf3 0ab5
00000280: 3456 0899 c770 4317 c8ce 63bc 4862 433c
00000290: a9b4 1e3c ff04 f8bb 4d12 6d3b 6084 1e3c
000002a0: e667 433d 896c 84bc cfb6 f83c fe47 a104
000002b0: 56c5 1885 b46e 8b05 7da8 bea8 9043 bfb9
000002c0: ec07 2906 af19 1f2e 5e1b a190 8d15 1c05
000002d0: 5867 683c fb3d 35bc d2de 0f3c dafe 6a3c
000002e0: 7d93 2cbd 239e c6ba 9f4a d73c 303f e43a
000002f0: e204 f93c 6d49 893c dddc d0bc dfb2 833c
00000300: 7fef 3fba d9fa 9c3c 324b be39 54a8 bb3c
00000310: 0a10 25bc 4fa3 753c 7375 dd3c e402 9b3c
00000320: 2573 6a3d 6001 8c3c 69f3 0abc e1c1 a8bc
00000330: 25c5 dc3b 8731 5f3b fd13 bd3c 9444 6b3c
00000340: 97ef 8d3c ecab a73c d356 59bc 4b49 85bc
00000350: b22b 6f3c 4626 c5ba 3e5e d4bc 1d06 ea3c
00000360: 5770 823c 82c3 efbb f76e 4e3d 4ab6 053d
00000370: 30c0 943b 84b2 d33c 98b3 e8bb 3187 16bb
00000380: 0612 713b 23af 8e0a 160b 962c de56 c3b0
00000390: c07b d332 ef9e 0504 461d 3e8c 0f08 3d89
000003a0: 21e0 4a1a 46d7 4e14 d7c8 8ebc 7175 5f3c
000003b0: 2919 783b cb40 733c 626c 46bc 289d f33b
000003c0: 9876 44bc 0f23 973c d42e 13bc c5ff 083d
000003d0: 9429 a03c 7e29 073d 25e8 0a3c f57e 573b
000003e0: 8be9 43bc e10c f63c fd4c 8a3c 2c35 d3bc
000003f0: cf25 fa88 30cc 5284 b30a 8a22 52fd 132d
-0.008044035 -0.0052901316 -0.0035738489 -0.034234278 -0.009967914 -0.0045248386 -0.04696718 -0.03389233
-0.019943187 3.80466e-12 3.5104174e-12 -2.1159569e-10 -1.0087454e-05 -0.00039942778 -5.340843e-12 -3.1654301e-09
4.443984e-12 3.3886867e-12 0.025750652 0.015348277 0.011015207 0.02851535 0.015823245 0.008505222
0.046511717 0.030045452 0.017399682 0.07154935 0.0066064806 -0.025908228 0.04083558 0.007249259
-0.029909017 0.041038215 -0.012259283 -0.029307535 -0.026769571 -0.0050963107 0.019885683 0.0018791517
-0.005862524 -0.006437459 0.012001848 0.011247128 -0.022623597 0.026462078 0.0048983814 0.011875873
0.010657518 0.00023599302 0.0051237717 0.043856505 0.018442772 0.013232693 0.01242295 0.021350339
0.040074162 0.021133758 -0.034090158 -0.026451293 0.06245386 0.00038701773 0.014825891 0.015972497
0.015472204 -0.008549056 0.009336737 0.004811743 -0.004904731 0.033925507 -0.015472085 0.022227474
0.032037232 0.009265958 0.018364796 0.01997778 0.0076313457 0.00560452 0.020920424 0.0064316927
0.01663816 4.3402074e-37 -2.5920732e-32 1.4111527e-23 -1.4614699e-07 9.456648e-22 -4.824293e-07 -1.8929465e-23
-1.1967262e-28 7.0129646e-32 -0.024333848 -0.017168926 -0.0048033833 -0.01473518 0.000993747 -0.002527937
-0.033377737 -0.0009276515 0.0056491448 -0.0020193316 0.005195017 0.03591772 0.012848363 -0.0020924439
0.00878149 -0.0129844295 -0.011202278 0.023674859 0.0200967 -0.0065208576 0.020284189 0.007960333
-0.003677299 0.009040519 0.012832486 0.0034358718 0.037532028 0.043413848 0.011291296 0.03573317
0.012988691 -0.012967929 0.0015104542 0.02506484 0.021304294 0.02677354 0.017355237 -0.0020561598
0.048149962 0.020127662 0.009917062 0.015280913 -0.010210089 0.0017855668 0.009010916 0.025714409
0.000114894356 0.028618528 0.022521826 -0.04349437 -0.017818887 0.01599077 -0.036945112 0.0074911164
0.014019785 0.044123072 0.018373372 0.008129217 0.012993389 -0.003586778 0.024411045 0.016332103
0.002457115 -3.804919e-15 0.00052305794 3.1771233e-24 4.6246434e-24 -8.78189e-24 9.069968e-24 -5.1764044e-07
-7.048444e-24 6.3150243e-25 -0.013904281 0.011925288 0.009686627 -0.007568955 0.0036174238 0.009675115
0.047706507 -0.016165035 0.030360607 3.7917032e-36 -7.1832505e-36 1.3112163e-35 -2.1167308e-14 -0.00036480697
3.1791187e-35 3.6175226e-11 -6.354547e-29 7.339043e-36 0.014184795 -0.011062141 0.008781152 0.014342988
-0.042132843 -0.001515333 0.0262807 0.0017413851 0.030397836 0.016758645 -0.02549594 0.016076503
-0.00073217595 0.019162582 0.0003629565 0.022907414 -0.010074625 0.014992549 0.027033543 0.018922277
0.057238717 0.0170905 -0.008480885 -0.020600261 0.0067373686 0.003405662 0.02308082 0.014359612
0.01732616 0.02046772 -0.013265329 -0.0162703 0.01459782 -0.0015041314 -0.025923844 0.028567368
0.015922708 -0.0073170075 0.050398793 0.032644548 0.004539512 0.025841959 -0.0071014874 -0.0022968764
0.0036784424 1.3739982e-32 4.264487e-12 -1.4212806e-09 2.4619908e-08 1.5707054e-36 -1.4645877e-31 -2.2753837e-33
4.195367e-23 1.0442797e-26 -0.017429752 0.01363884 0.0037856793 0.014846991 -0.012110801 0.007434506
-0.011991166 0.018449334 -0.008983333 0.033447046 0.019551076 0.032998554 0.008478199 0.0032882069
-0.011957536 0.030035438 0.016882414 -0.02578219 -1.5055216e-33 -2.477914e-36 3.7416303e-18 8.412231e-12

bias f4 [32]
00000000: 41d2 f73c 9846 ddba ac8b eb3c 555a 503d
00000010: 287f 983c b9aa 673d 801a 6d3d 0a49 18b7
00000020: 8d0d b03c 2774 fc3b 15e9 063d 9ff3 143d
00000030: b8bf 543d 17fa 793c 7c5f 623d be9a 98b8
00000040: e279 d1bc de8d 17b9 e1d4 5ab8 b2d9 d3b9
00000050: 5f05 51b6 d9f6 af3c 970e 263d 0e25 3b3d
00000060: e1c5 88bb ac9b 833c 6018 22b5 b814 703d
00000070: 40b4 b93c 2585 953c 1584 6eb9 8229 263d
0.030251624 -0.0016882 0.028753124 0.050867397 0.01861532 0.0565593 0.0578866 -9.076912e-06
0.021490837 0.007704276 0.032937128 0.036365148 0.05194065 0.01525738 0.055266842 -7.276748e-05
-0.025570814 -0.00014453332 -5.217351e-05 -0.00040407252 -3.1146553e-06 0.02148001 0.040541258 0.045689635
-0.0041739796 0.016065441 -6.0385173e-07 0.05861351 0.022668958 0.018251965 -0.00022746653 0.04056693

weight f4 [32, 64, 3, 3]
00000000: 9f33 5dbd 3ec8 b3bc 0838 8dbc 3111 48bc
00000010: 8605 51bc 15be 5d3c 0b01 0abc d9d5 303c
00000020: 6054 1a3c 2dfb ef2b 8425 f434 2afa faab
00000030: e945 8832 0b99 7034 af51 24b0 49b5 9b2e
00000040: ad56 64ac 4d45 362b ce7a 013d 9108 733c
00000050: 6166 1d3c 1af3 c43c a7b9 003c e8a7 36ba
00000060: d4f3 c33c ce3e 993b 94ce cfbb 17df 943c
00000070: c93f 2e3c 05ee 0a3c 6e2c 8f3c 9136 473c
00000080: 2bdc 0abc eed7 803c 5e2b 973c 85c2 b43c
00000090: 4b4d 44bc 5c40 003c 13d7 6b3b b4d7 b3ba
000000a0: 1c74 8a3b d422 e1ba 002f 9dbc 9b28 12bc
000000b0: a83c e0ba 4435 613c 2d8f b83a 42a5 1d3c
000000c0: e072 98bb df50 a73b bbcc 1fbc c7a6 0cba
000000d0: 29d6 123c 5729 4f3b b537 983c 4b9e e53a
000000e0: 4a2b 733a c9a2 9dba b0bb 133d 23f2 623a
000000f0: e96b 253b e225 f339 455b aaba e031 b9bb
00000100: 672a bebc 7d4c afbc 8936 ae3c 0bf5 d3bc
00000110: 3946 043b c167 0b3b 5827 5c3b 576a f13c
00000120: e65d 473c c4fd 593c a62b 583c db71 663c
00000130: 274c 41bc 907a 0e3c 3927 ef3b 68db c53c
00000140: 44af c9bb 5715 1e11 277f 032f 274d d5af
00000150: d712 d127 1c7a 0508 a646 8cb5 60d4 19b7
00000160: ba56 6506 9a82 3e35 5598 cdbc cb38 85bc
00000170: d977 1ebc b5c3 91bc aa84 0dba d115 9c3b
00000180: cfae 62bc a4c0 483b 09fb 0ebb f256 b5bc
00000190: 0470 8d3b bdfd 213b 85ad e6b9 fc35 27bc
000001a0: 9a8f 92bc e5cc 0abc 0a22 4c3c 5eac 32bc
000001b0: 3937 953b 39bc 77ba 9ac2 bdbb 45c1 a6bb
000001c0: 450f fe3a a485 253c 241a 2abb 68db 6abb
000001d0: 5fb1 e2bb 384b 37b9 6a3f 55bb 0689 033c
000001e0: 237d 65bc db9a ae3c 55cc edbc cec8 15bc
000001f0: ed9e 07bb 3b51 2ebc 3ac1 d03b cc18 313b
00000200: 58f7 253c 3a5c ebbb 5a13 d63b 1c91 83bb
00000210: 7570 1cbc 70c2 ceb9 b3b1 7c3a 5cd5 473b
00000220: 1a58 703b 7f53 de3b 8cb4 dabb 46a5 8f3b
00000230: 4114 df3c fc0a 81bb 6cb9 af3b 7733 8e3c
00000240: f5dc 3a3c d9f6 b83b ae96 623b 107b e23b
00000250: 5f93 a43c 10ce d93c ab10 e4bc 6401 87bc
00000260: d390 30bc f8a7 3335 4021 041c 6857 74ac
00000270: 78c8 1f99 1b28 2799 33d0 b018 c31f 7619
00000280: 9c94 4b99 a3e2 bc17 ce69 ad3b c2ce 4f3b
00000290: 9eec ab3c 648f 7d3c dcb7 b43a a960 a53c
000002a0: 0b9b 6fbb e78a 943b 0e33 8abc 2f2b d487
000002b0: 6695 81b2 1468 9f8d ec71 7e34 534b 1187
000002c0: 45b2 dc8d 1c99 b0ab f293 7b85 f933 8385
000002d0: 8f93 83ba 0267 313c e072 013c 0f52 573c
000002e0: c359 ccbc 5456 acb9 3812 73bc 8fc7 4cba
000002f0: 2967 8b3c e362 933c 2391 e43b 0372 d2bb
00000300: 9a51 013d ac39 2cbc c53b f5bb ff27 75bb
00000310: 07a8 45bd 3856 eb3b eae7 343a fbbf 05bc
00000320: 6c61 da3b 8a92 22bb aaec 413c 37d4 76bb
00000330: c333 5ebc 3d48 fbbb 389e 07bd caac 00bc
00000340: ce2b e6bb d399 863a 85bd 30bd 23dc d9bb
00000350: c024 4ebb 7999 04bb b4da bbbb 7bfc 7ebc
00000360: ee03 453b 83d1 1e3b db9d 08bc ce0c 46bb
00000370: 44c9 f2bb 35d8 97ba 338f 11ba 7ca7 2ebb
00000380: fbbc 09bc c4a1 878a 0063 3381 541b 8d07
00000390: f29f a035 5d83 3786 9d44 e886 20f3 c086
000003a0: d5d9 9984 9327 fb85 8915 91bc cb58 0fbc
000003b0: 04dc a0bb bec7 4d3d a270 71b8 a6e5 0bbc
000003c0: 407a b3bb 46fc 8d3b 6ae0 41bb f48c c43b
000003d0: bc37 0ebc f84d 9bb9 b086 be3a 4303 87ba
000003e0: 1009 e63c 62d4 f23c ee0e ea3c 7f53 a03b
000003f0: 0f2f 0601 2e5c e20a 106b 9d87 4762 5a1c
-0.054004308 -0.021946069 -0.017238632 -0.01221113 -0.012757665 0.013534089 -0.0084231 0.010793173
0.009419531 1.7051687e-12 4.5475838e-07 -1.7833003e-12 1.5864275e-08 2.2407418e-07 -5.977893e-10 7.0807867e-11
-3.2448863e-12 6.4755563e-13 0.031611256 0.014833585 0.009606929 0.024041701 0.007856763 -0.0006967769
0.023919977 0.0046766764 -0.0063417647 0.018172784 0.010635325 0.0084796 0.01747724 0.012159006
-0.008475344 0.015727963 0.018453296 0.02206541 -0.011981319 0.0078278445 0.0035986349 -0.0013720901
0.004225267 -0.0017176517 -0.01918745 -0.008920814 -0.0017107921 0.01374561 0.0014080756 0.00962192
-0.004652366 0.005106076 -0.009753401 -0.0005365428 0.008962193 0.0031610334 0.01858125 0.0017518488
0.0009276165 -0.0012026663 0.036067665 0.0008657297 0.0025241321 0.00046376797 -0.0012997171 -0.0056516975
-0.023213578 -0.021398777 0.021266239 -0.025873682 0.0020183458 0.002127156 0.0033592787 0.029469652
0.012168383 0.013305131 0.013194 0.014065231 -0.011797941 0.008696213 0.007298377 0.024152473
-0.0061549265 1.2470578e-28 1.1959554e-10 -3.8799294e-10 5.802958e-15 4.016677e-34 -1.0451374e-06 -9.168958e-06
4.313383e-35 7.0970566e-07 -0.025097052 -0.016262433 -0.009672129 -0.017793516 -0.00053984916 0.004763343
-0.013835623 0.00306324 -0.002181711 -0.022136185 0.004316332 0.002471789 -0.000439983 -0.010205742
-0.01789074 -0.008471702 0.012459287 -0.010905353 0.004553702 -0.00094503496 -0.0057910206 -0.0050889575
0.0019383213 0.010102663 -0.0025955522 -0.0035836343 -0.006918117 -0.00017480261 -0.0032539018 0.008028274
-0.014006886 0.021314075 -0.029028097 -0.009142114 -0.0020694092 -0.010639484 0.0063706907 0.0027022837
0.010129772 -0.007182625 0.0065330686 -0.004015101 -0.009548296 -0.0003943625 0.00096395164 0.0030492162
0.0036673606 0.006784856 -0.006674355 0.004383716 0.027231338 -0.003938077 0.00536268 0.017358525
0.011405219 0.005644661 0.0034574675 0.006911643 0.020089803 0.026587516 -0.02783998 -0.016480155
-0.010776716 6.6927123e-07 4.371811e-22 -3.4723006e-12 -8.260592e-24 -8.641797e-24 4.570516e-24 1.2724316e-23
-1.05248654e-23 1.2206426e-24 0.005292154 0.003170893 0.020986851 0.0154760815 0.0013787705 0.020187693
-0.0036560919 0.00453316 -0.016870048 -3.1923596e-34 -1.5085515e-08 -9.824187e-31 2.3697038e-07 -1.0930723e-34
-1.3601464e-30 -1.2548049e-12 -1.18291365e-35 -1.2338273e-35 -0.0010038483 0.010827782 0.0079009235 0.013142123
-0.024945145 -0.00032870716 -0.014835887 -0.0007811719 0.017016964 0.017991489 0.0069753095 -0.0064222827
0.031571962 -0.010511797 -0.0074839317 -0.0037407873 -0.048255946 0.007181909 0.0006901013 -0.0081634475
0.0066644456 -0.0024806582 0.01183621 -0.003766311 -0.013562146 -0.0076685236 -0.033109874 -0.007853696
-0.007024265 0.0010269232 -0.04314949 -0.006648557 -0.003145501 -0.0020233078 -0.0057328586 -0.015563126
0.0030062157 0.0024233765 -0.008338417 -0.0030220035 -0.0074092466 -0.001158482 -0.00055526494 -0.0026650121
-0.008406873 -1.3060877e-32 -3.2948137e-38 2.1231384e-34 1.1967479e-06 -3.4514985e-35 -8.736952e-35 -7.2579613e-35
-3.6170174e-36 -2.3618464e-35 -0.017710464 -0.008749197 -0.0049090404 0.050239317 -5.7563775e-05 -0.008538639
-0.00547722 0.004333052 -0.0029583224 0.0059982482 -0.00868028 -0.00029621995 0.001453599 -0.0010300655
0.028080493 0.029642288 0.028571572 0.004892766 2.4645676e-38 2.1797683e-32 -2.368566e-34 7.225717e-22

bias f4 [32]
00000000: dae4 1cbc 54c7 2a3c f828 263d 6509 a73a
00000010: 539e f53c 607c f23c 51da 24b4 e3d8 62bc
00000020: 855a 6e3b 9960 6d3c 861b a63c ae25 0a3d
00000030: 2cdf 283b af4d 79bc 700a 123d 7f75 8abc
00000040: 2091 1dbc c302 dc3c be31 4c3d b048 a73c
00000050: 1bc7 1b3c a0a2 1b3b fcad 463d 0d07 4f3c
00000060: 4bfd 67bb b3f5 bf3b dbe6 85bc 17c3 d9bb
00000070: 76fb aeb8 5664 2d3d ee10 c73c fed5 bd3c
-0.009576047 0.0104235 0.040566415 0.0012743889 0.029982721 0.029600322 -1.5353113e-07 -0.013845655
0.0036369872 0.014488363 0.020276796 0.03372734 0.0025767786 -0.015216275 0.035654485 -0.01690173
-0.00961712 0.026856786 0.049852125 0.020420402 0.00950792 0.0023748055 0.04850577 0.012635958
-0.0035398777 0.005858147 -0.016345432 -0.006645571 -8.343805e-05 0.042332016 0.024300065 0.023173328

weight f4 [32, 64, 3, 3]
00000000: 2216 67bc c670 82bd f3b4 92bc a2ee 813b
00000010: 94e1 21bc dd80 303c c991 e33c b6ee 4b3b
00000020: 14c9 0a3c ee0e 113d 3d6f bebc b7ee 043d
00000030: e588 1ebc e249 9b3b 3739 e8bc 0922 813c
00000040: 75ba 003c ac9f adbc 0275 dbbb 6651 31bc
00000050: 0a60 1cbc f3f6 a4bc 673d a6bb 0e2f 803c
00000060: 4824 30bb c239 d6ba 845f c23c bf38 be3c
00000070: 7c84 9abc 2b79 19bc b116 10bc 3e14 babc
00000080: 70f0 173d f917 263d 1c99 453b 7b37 11bc
00000090: d31d 8b35 0f8d 90ac 76f0 8cac cbe4 85ac
000000a0: 46a1 39ab bd5b 6c36 ae0d 942b 28ec 59ac
000000b0: cd5e a5ab 73b7 f035 9bc9 7909 031c b498
000000c0: 34cd b232 1923 058e f84b ed28 e2f2 6b9a
000000d0: e1a8 a215 c4f7 f636 705e c83c 6ca1 36bb
000000e0: e4c2 0abc 70fc fc3b d7c7 153b c338 ec3b
000000f0: 440d 513c 33ea 343c 5864 c8bb 834c 6fb3
00000100: 3782 3410 1506 e39d 9a09 ae07 3a0f 859a
00000110: a9a4 3b88 ea2b 8e85 f6dd bc11 9d6c ab98
00000120: df3b 46a9 75cd ca05 017c 929a d102 2a07
00000130: dd68 3485 319c 2e0b aed6 991c eb72 dbae
00000140: f155 e687 0ccf 9f06 5b29 001c a8c2 29ae
00000150: 9f0b 0285 eab9 2ca7 8ab1 9ea9 6a3e 4189
00000160: df20 c3a9 ab13 4c2a c1d4 d1bb 0bc1 5c3c
00000170: c78f 933c 4940 b63b bcf9 793c b940 69bc
00000180: 20fc 7cbc 581b 7bbc d2c7 273c 0ff7 ec3c
00000190: c9fa 873c a5f5 f43b b0db 923c 1e2b 47bc
000001a0: c8f1 a43c 1ed4 df3c 64df 753a d09f cf3c
000001b0: 70d6 05a8 717f 44a8 7c46 57a7 1fc2 7cb5
000001c0: 22f1 6226 a5c8 9f2f 7247 8f36 bd46 b5a5
000001d0: 1597 bb27 d1b9 80ab 5315 18ab 4b06 a611
000001e0: 80fd 0ba5 f3f7 0892 9ed0 310c d591 0596
000001f0: 5f3a 9f0e 478e b1ab 5896 9ebb c7be adbc
00000200: 5b1e 66bc ef04 33b9 2347 03bc b5bc b039
00000210: e074 8b3c 87af 433a 0e9b 503c 740f 44bc
00000220: da9d 93bc cfa7 1dbc c564 083d 21be f3bb
00000230: a7ad 1abd 9cea bdbc 929c a63c 2bd2 1cbd
00000240: 148c 93bc 3e07 70bc 74b5 0abc 5169 9f3c
00000250: 01fe 1fbc a582 34bd bb38 a83b b681 eabc
00000260: cddd c83b d99f 7d3c a1f4 bf3c db85 2bbc
00000270: 0ad6 ca3b f3be 9abb 2bcc b93c bb74 93bb
00000280: d7d9 3fbd a110 143c 8de7 3b3c 1486 283c
00000290: 09f7 24bb 344d f43b 7391 113c 8e86 39bd
000002a0: 7fd8 083c cff6 863c 1bc1 373c ffa9 87bb
000002b0: 80f3 b8ba 5603 bb3b 2d8e 0a3d d693 0a3c
000002c0: d49f b43c bf26 db3b 38a6 823c fe36 c1ba
000002d0: 7a02 103c fab1 04bb 8dfb 09bb 0112 103d
000002e0: 71b1 3c3b 35cc 0ebc 2ddf d3bc 2064 b439
000002f0: 1e79 54bc 5ca6 9d3a 7a7e 9c3a 3b2d a239
00000300: ef5b ad3a be58 843a cc65 333a e7fb bc3a
00000310: 734a 80ba 1939 703a a0f2 e4bb d0fb edbc
00000320: 16b8 663c b741 af3c 1a14 aabc 4ba6 e9bc
00000330: 5562 9f3b 8e0e 04bc f128 813c 4cfc 13b7
00000340: 504e 982e 0ce5 8eab 78a4 962e de9f dfb3
00000350: 5975 e0b4 8084 72b7 c4e0 522f ee25 1db6
00000360: 91b6 69ac f631 7c19 74d2 32af 4908 c8b9
00000370: 0dfa 6e27 c58a bd34 6e97 1323 7f68 b41d
00000380: cddf 4f19 308b 9a3b 91af 973c 3282 ebbb
00000390: a6a1 d33c 0809 dcbb 9992 2e3d e970 903c
000003a0: a810 40bc bf9e 86bc 0199 1db8 dbd7 9a37
000003b0: 4a02 40b8 f8f0 3237 d56c 1737 7e51 9537
000003c0: e8eb 54b7 78b1 c737 f579 5eb8 3715 c03c
000003d0: 7b72 1e3c fa54 d3bc bc63 543c cdb0 2a3c
000003e0: ea19 ad3c 6c90 e73b 6343 a23b 5971 37bc
000003f0: 2148 973c 46ec 773c 6485 0fbc a803 433c
-0.014104398 -0.06369166 -0.017908549 0.003965215 -0.009880442 0.010772911 0.027779477 0.0031117625
0.008470792 0.03541463 -0.023246402 0.03245422 -0.009676193 0.004739032 -0.028347595 0.0157633
0.007856955 -0.021194302 -0.006697298 -0.01082263 -0.009544382 -0.020137286 -0.0050732377 0.015647437
-0.0026877094 -0.0016344117 0.023727186 0.023220418 -0.018862002 -0.009367268 -0.008794473 -0.02271473
0.037094533 0.040550206 0.0030151075 -0.008863325 1.0364987e-06 -4.108387e-12 -4.005736e-12 -3.8054885e-12
-6.5949015e-13 3.522014e-06 1.0519829e-12 -3.0968648e-12 -1.1750268e-12 1.7934784e-06 3.006708e-33 -4.6557194e-24
2.0815243e-08 -1.6410415e-30 2.6345232e-14 -4.879306e-23 6.569772e-26 7.360215e-06 0.024459094 -0.002786721
-0.008469317 0.0077205226 0.002285471 0.007208915 0.01275951 0.011042166 -0.0061154775 -5.571611e-08
3.5599055e-29 -6.009269e-21 2.6186253e-34 -5.503211e-23 -5.6466823e-34 -1.3369747e-35 2.9797964e-28 -4.4312135e-24
-4.401676e-14 1.9071462e-35 -6.0584524e-23 1.2790206e-34 -8.48282e-36 3.3628686e-32 1.0180184e-21 -9.9793805e-11
-3.4657066e-34 6.011338e-35 4.24051e-22 -3.859904e-11 -6.114705e-36 -2.397058e-15 -7.0474076e-14 -2.3260877e-33
-8.665442e-14 1.8125663e-13 -0.006403536 0.013473759 0.018012894 0.0055618626 0.015257295 -0.0142366225
-0.015440971 -0.0153263435 0.010240512 0.0289264 0.016599076 0.007475572 0.01792702 -0.012156276
0.020134822 0.027322825 0.0009379296 0.02534476 -7.429482e-15 -1.090782e-14 -2.9875453e-15 -9.41598e-07
7.8736297e-16 2.9064498e-10 4.2700494e-06 -3.144643e-16 5.206673e-15 -9.146521e-13 -5.403084e-13 2.619406e-28
-1.2142217e-16 -4.3219654e-28 1.3698362e-31 -1.0789671e-25 3.9252736e-30 -1.2616096e-12 -0.0048396997 -0.021209134
-0.014045323 -0.00017072608 -0.008012566 0.00033709934 0.017023504 0.0007464815 0.01273228 -0.011966575
-0.018019605 -0.009622528 0.033299226 -0.0074384366 -0.037763264 -0.02318316 0.02033833 -0.03828637
-0.01801113 -0.014650164 -0.008466113 0.019459398 -0.009765149 -0.044069905 0.005133716 -0.028626304
0.0061299563 0.015480005 0.023432078 -0.010468925 0.006190066 -0.00472247 0.022680363 -0.0044999993
-0.046838608 0.009037168 0.01146878 0.010285873 -0.0025171658 0.0074554924 0.008884775 -0.045294337
0.008352398 0.01647511 0.0112154735 -0.004140138 -0.0014110655 0.005707185 0.033826996 0.008458098
0.022048868 0.0066879685 0.0159484 -0.001474112 0.008789653 -0.0020247684 -0.0021054477 0.03517342
0.0028792287 -0.008715679 -0.025863254 0.00034406874 -0.01296833 0.0012027728 0.0011939548 0.00030932747
0.0013226251 0.0010097248 0.0006843477 0.0014418334 -0.0009787813 0.00091637817 -0.006986931 -0.029050738
0.014081975 0.02139364 -0.020761538 -0.028521677 0.004864017 -0.008060111 0.015766593 -8.820625e-06
6.926071e-11 -1.015328e-12 6.850426e-11 -1.04133264e-07 -4.1808633e-07 -1.4455174e-05 1.9179242e-10 -2.34169e-06
-3.3212636e-12 1.3038184e-23 -1.6263774e-10 -0.00038153146 3.3164688e-15 3.5304961e-07 8.0009525e-18 4.775365e-21
1.0746845e-23 0.0047162995 0.018516334 -0.0071871514 0.025833916 -0.006714944 0.042620275 0.017631965
-0.011722721 -0.016433118 -3.7574213e-05 1.8458746e-05 -4.57785e-05 1.0665732e-05 9.025641e-06 1.7800132e-05
-1.2691111e-05 2.3805289e-05 -5.3042506e-05 0.023447616 0.009670849 -0.025797356 0.012963232 0.010418129
0.02113052 0.007066777 0.004951881 -0.011196458 0.01846701 0.015132016 -0.00875983 0.011902727

bias f4 [32]
00000000: dfc3 3c3d 0ef7 2f3d c1f6 1f3d ff9f df3b
00000010: 2eb3 c73c 9f7a e33c 24a1 173d 99e8 02bb
00000020: 7555 97b5 f178 273d dc1e 2ebb b99e 373d
00000030: 06e7 72bc 9cce 2cbb abe8 d5ba f873 553b
00000040: fc52 463d 58d2 e1b6 f7f9 68b5 ff4a 0abd
00000050: 130a c53a 4cdf 97bc 8ba5 2b3c 16f4 363d
00000060: 3a74 49b7 289f 0bbc c7e0 353d 58f5 8f3c
00000070: 00f9 a2ba 7f99 0fbc 495a 1ebc 5316 193d
0.046085235 0.04296022 0.039053682 0.006824493 0.024377432 0.027768431 0.03701891 -0.0019975065
-1.1275248e-06 0.040886823 -0.0026568687 0.044829104 -0.014825588 -0.0026368266 -0.0016319951 0.0032570343
0.048418984 -6.7300098e-06 -8.679048e-07 -0.033762928 0.001503291 -0.018539093 0.01047648 0.044666372
-1.2007595e-05 -0.0085218325 0.044403818 0.017573044 -0.0012433827 -0.008764624 -0.00966508 0.037374806
